app/src/main/assets/model_resnet.tflite (tflite, 121908 bytes, 14 tensors)

arith.constant f4 [32]
-0.26135278 0.18663354 0.31448826 -0.15495208 -0.026701802 -0.09509451 -0.07826653 0.04255578
-0.016605163 -0.3753507 0.16341534 0.049887083 0.019860221 0.11115772 0.121554255 0.09434341
0.04903652 -0.15267114 0.25747547 -0.3134381 -0.2147113 0.15557674 -0.26241672 0.36714414
-0.0032576486 0.005191566 0.08527171 -0.2980984 0.36643097 -0.036576428 -0.118394285 -0.1478019
00000000: 08d0 85be dd1c 3f3e 9b04 a13e c2ab 1ebe
00000010: bdbd dabc e9c0 c2bd 344a a0bd f84e 2e3d
00000020: 8d07 88bc f82d c0be 5a56 273e 6656 4c3d
00000030: e7b1 a23c a9a6 e33d 70f1 f83d 1e37 c13d
00000040: 85da 483d d355 1cbe d3d3 833e f57a a0be
00000050: 47dd 5bbe 824f 1f3e 7c5b 86be 51fa bb3e
00000060: 467e 55bb 031e aa3b efa2 ae3d 5aa0 98be
00000070: d79c bb3e 2ad1 15bd b478 f2bd 6259 17be

arith.constant1 f4 [32]
-0.14276835 -0.12986904 0.0257502 -0.068352856 -0.15385357 -0.009584042 0.047690693 -0.0047372514
-0.029585967 -0.15617168 -0.046805523 -0.070086375 -0.07427466 -0.13746051 -0.06331181 -0.041620504
-0.082953624 -0.09005416 -0.07431208 -0.1066265 -0.124193996 -0.18557103 -0.046984013 -0.19878455
-0.050425265 -0.07002295 0.044804275 -0.016953958 0.012768044 -0.14365523 -0.10167918 -0.04868329
00000000: de31 12be 64fc 04be 15f2 d23c 95fc 8bbd
00000010: ca8b 1dbe 6306 1dbc 5157 433d f23a 9bbb
00000020: 455e f2bc 78eb 1fbe 26b7 3fbd 7289 8fbd
00000030: 501d 98bd 73c2 0cbe 9fa9 81bd 437a 2abd
00000040: 97e3 a9bd 516e b8bd ef30 98bd ff5e dabd
00000050: 6c59 febd 5506 3ebe 4f72 40bd 2d8e 4bbe
00000060: b98a 4ebd 3168 8fbd b084 373d 07e3 8abc
00000070: 0f31 513c 5b1a 13be 2d3d d0bd 2168 47bd

arith.constant2 f4 [4, 256]
-3.8261933 0.96033835 3.5527954 -0.42011574 -0.36133978 0.38459882 0.53136873 -3.364194
-0.28887373 -0.8950849 0.53748035 -2.7084076 -3.6143477 4.054295 -0.03854971 2.3904643
0.9772422 -1.5702451 0.16406995 1.1178813 0.117767334 -2.7632432 0.5620971 4.4511933
-1.6356993 1.0764377 3.025844 -0.003394139 3.885551 -0.07973416 0.12145731 -0.005172602
1.3576525 -0.08650043 1.1885766 -0.0619195 -1.5487286 3.1124146 -1.1308781 -0.67512465
-0.67915666 -0.48847216 0.41433266 0.22076705 1.8222147 -2.7513378 -1.3661597 -2.7105772
1.9676005 0.70206773 -1.5017531 -3.5447826 -0.35634837 0.23989981 -3.121405 1.1539179
0.21526895 -0.68901104 2.7062337 1.5101511 1.4806292 -0.24200107 0.1688349 -3.336079
-2.3491576 -1.484874 -1.5302323 2.9755206 -1.612757 -2.8189662 0.24289931 0.16160014
-0.13050738 -1.4771503 0.18037811 2.1746747 1.6840336 0.6476306 0.3735955 -4.8563204
-1.7955769 0.7906511 0.6821876 -0.1785499 -2.5791988 0.16308707 -2.8792708 -1.5456861
0.43565327 3.8675551 0.32401606 -1.652096 1.3541166 -3.7334616 -2.0807803 0.0037582053
0.39160198 2.7579982 -0.7363444 0.06014561 0.95967686 2.135098 0.6240013 -2.2179615
0.80159175 2.1204896 -1.8957617 -3.0507932 0.33983877 -3.0803785 -5.3238463 0.27858216
1.1617832 0.4529554 0.815922 0.46706536 3.5081952 0.8707657 0.15203251 1.4754459
-1.6581298 -1.8109931 -1.7051927 -1.0995424 -0.00676242 3.4847708 3.0105844 0.45721313
-1.6311811 0.16465469 -0.4879406 -2.819962 0.38870463 -2.2135997 2.5789948 1.8136086
-3.68831 0.34216797 0.2238396 0.68053365 0.52348334 0.1119133 -0.37962493 -1.6823406
1.5834795 0.26083133 0.19832872 0.0062992014 -0.0030513864 -0.17157352 1.9987174 -0.236593
0.4106739 -1.6957263 1.8370965 -0.37053958 0.6888449 -0.97275424 -3.4102688 -3.914021
0.061176494 0.8037767 -1.1700783 -2.8726585 -3.7150037 -3.4285583 0.4966294 2.9518905
-0.55425286 -0.60547256 0.2700086 -2.7078588 -4.236613 -4.821037 -0.008991975 -3.9027953
-1.1400691 1.288453 3.0458937 0.52971506 -1.7425659 -5.088876 -1.0376444 0.10077513
0.02339435 -0.3125305 -0.2709991 -1.0589458 -0.46506932 2.0336304 2.6153631 0.8789017
0.46280304 0.89562774 0.6973356 -3.4199145 0.43787563 0.14063928 1.7869545 -0.885702
3.5180974 -1.3858666 -2.8328934 0.54780066 0.62808543 -0.055842347 1.3134626 -0.5333111
1.0160286 0.022039825 -1.6797975 -0.2560438 -2.959042 -0.9439159 -3.6178555 -0.60269135
-1.0193825 -3.2341273 0.016564524 1.3992101 -1.9471589 0.5140333 1.7887723 -3.5762343
-0.6233106 0.025209894 1.1150318 -0.31143713 -2.7271156 -0.065357454 0.5851894 -0.96559644
-1.8024884 -5.429588 0.02920146 1.4674292 -2.344968 3.657735 -0.08366554 -0.16412397
0.39604285 1.6813344 -0.81140745 -0.212084 0.07019888 -0.0153793115 1.3917317 2.4642186
0.12453851 -1.606056 3.792008 2.3342109 -0.4482765 0.8026607 -2.3603742 4.75399
00000000: 5ae0 74c0 bcd8 753f 0061 6340 6919 d7be
00000010: 8701 b9be 23ea c43e c807 083f f44e 57c0
00000020: 42e7 93be 4924 65bf 5098 093f 8d56 2dc0
00000030: 7951 67c0 c9bc 8140 4de6 1dbd 5efd 1840
00000040: 8b2c 7a3f cbfd c8bf f401 283e bc16 8f3f
00000050: 0030 f13d fad8 30c0 98e5 0f3f 2d70 8e40
00000060: 985e d1bf b6c8 893f 6ea7 4140 3470 5ebb
00000070: deac 7840 aa4b a3bd 9cbe f83d ee7e a9bb
00000080: 8fc7 ad3f 2327 b1bd 4723 983f 4d9f 7dbd
00000090: bd3c c6bf cd31 4740 9dc0 90bf f8d4 2cbf
000000a0: 36dd 2dbf 0619 fabe 6923 d43e c210 623e
000000b0: 553e e93f eb15 30c0 52de aebf 197a 2dc0
000000c0: 55da fb3f b6ba 333f 7239 c0bf b8dd 62c0
000000d0: 4b73 b6be 4ca8 753e 19c5 47c0 95b3 933f
000000e0: 776f 5c3e 0763 30bf ef32 2d40 a24c c13f
000000f0: 4285 bd3f 21cf 77be 0ee3 2c3e 5182 55c0
00000100: 9958 16c0 5a10 bebf a7de c3bf ee6e 3e40
00000110: d26e cebf f169 34c0 99ba 783e 827a 253e
00000120: baa3 05be 4313 bdbf 0ab5 383e df2d 0b40
00000130: 6a8e d73f 1ecb 253f e947 bf3e fa66 9bc0
00000140: 77d5 e5bf 1c68 4a3f d9a3 2e3f c9d5 36be
00000150: 9811 25c0 4c00 273e f945 38c0 0bd9 c5bf
00000160: f20d df3e 0686 7740 6fe5 a53e e277 d3bf
00000170: b153 ad3f 09f1 6ec0 812b 05c0 394c 763b
00000180: 0e80 c83e 0b83 3040 1181 3cbf 3e5b 763d
00000190: 62ad 753f 72a5 0840 8dbe 1f3f 15f3 0dc0
000001a0: 1e35 4d3f 1ab6 0740 52a8 f2bf 3240 43c0
000001b0: 59ff ad3e ec24 45c0 f35c aac0 52a2 8e3e
000001c0: 50b5 943f c5e9 e73e 44e0 503f 3123 ef3e
000001d0: 4586 6040 80ea 5e3f 69ae 1b3e 69db bc3f
000001e0: 993d d4bf 9fce e7bf c143 dabf cebd 8cbf
000001f0: 4a97 ddbb 7c06 5f40 6aad 4040 d717 ea3e
00000200: 8bca d0bf 3d9b 283e 5ad3 f9be 427a 34c0
00000210: 4b04 c73e 9eab 0dc0 400e 2540 5424 e83f
00000220: 450d 6cc0 a430 af3e 3536 653e 7437 2e3f
00000230: 0103 063f cd32 e53d 335e c2be f056 d7bf
00000240: 75af ca3f af8b 853e af16 4b3e 8869 ce3b
00000250: c5f9 47bb f8b0 2fbe f9d5 ff3f 6f45 72be
00000260: d943 d23e 8f0d d9bf fa25 eb3f 5db7 bdbe
00000270: 2458 303f 6c06 79bf d841 5ac0 527f 7ac0
00000280: 3494 7a3d 4fc4 4d3f 20c5 95bf a3d9 37c0
00000290: 9fc2 6dc0 806d 5bc0 3546 fe3e c6eb 3c40
000002a0: 84e3 0dbf 4000 1bbf 913e 8a3e 8f4d 2dc0
000002b0: 5592 87c0 ef45 9ac0 1453 13bc 66c7 79c0
000002c0: c9ed 91bf 07ec a43f ecef 4240 689b 073f
000002d0: 660c dfbf 12d8 a2c0 88d1 84bf 3163 ce3d
000002e0: 82a5 bf3c ff03 a0be 65c0 8abe 898b 87bf
000002f0: 911d eebe 0027 0240 1c62 2740 b4ff 603f
00000300: 85f4 ec3e dc47 653f 9684 323f e1df 5ac0
00000310: 3c31 e03e be03 103e edba e43f 5ebd 62bf
00000320: 8228 6140 1464 b1bf 204e 35c0 aa3c 0c3f
00000330: 35ca 203f f2ba 64bd 8b1f a83f 1487 08bf
00000340: 3a0d 823f dd8c b43c 9b03 d7bf 2c18 83be
00000350: f260 3dc0 79a4 71bf f28a 67c0 fb49 1abf
00000360: 207b 82bf f1fb 4ec0 53b2 873c 5119 b33f
00000370: 813c f9bf b097 033f 7ef6 e43f 06e1 64c0
00000380: 4991 1fbf fb84 ce3c 5db9 8e3f b074 9fbe
00000390: 1089 2ec0 21da 85bd f9ce 153f 5431 77bf
000003a0: f1b7 e6bf 2fbf adc0 e637 ef3c b8d4 bb3f
000003b0: f513 16c0 5518 6a40 d758 abbd 1d10 28be
000003c0: 21c6 ca3e f735 d73f 66b8 4fbf 8c2c 59be
000003d0: 6ec4 8f3d 82f9 7bbc 4424 b23f c2b5 1d40
000003e0: 0c0e ff3d 3e93 cdbf 42b0 7240 b663 1540
000003f0: 7f84 e5be 2c7b 4d3f 5f10 17c0 b020 9840

arith.constant3 f4 [4]
-4.6418242 5.337824 -4.5673747 0.37186608
00000000: d389 94c0 74cf aa40 ef27 92c0 3b65 be3e

arith.constant4 f4 [32, 3, 3, 32]
-0.08082978 0.042351857 -0.021804243 0.033343893 -0.030059544 0.0183931 -0.0010403036 -0.008824931
0.007952261 -0.008335703 0.04596677 -0.011371912 0.02898844 -0.012678341 -0.025844637 -0.017151136
-0.036790285 -0.05193705 0.006430941 -0.0684254 -0.03281663 -0.045569077 0.012302931 0.018743124
0.004217162 -0.066446684 -0.017577406 0.018835329 0.018558457 -0.03996237 0.03521785 -0.020410761
-0.03310701 0.0212649 -0.062427614 -0.031120243 -0.0010745416 -0.05313495 0.026535282 0.02812228
0.04539969 -0.023036592 -0.02048956 -0.028091228 0.030209593 0.009274697 0.026981682 -0.039004944
0.00912291 -0.020427478 -0.03301542 -0.07546559 -0.036363505 -0.017087735 0.025639376 0.03151561
-0.022935482 -0.022835838 -0.031051744 0.05186239 -0.017366253 -0.06486444 -0.03417463 -0.040865626
-0.07120642 0.033121504 -0.042309053 0.05093827 -0.044294845 0.024186071 0.04277249 0.039770484
-0.015236741 -0.025493449 0.028695496 -0.014740147 0.0034930825 -0.03954642 0.023629716 -0.031242115
-0.04202965 0.025428886 0.02405642 -0.06817786 -0.03230463 -0.009175297 -0.039454106 0.0046347994
-0.02750985 0.0006115335 -0.037471976 0.049070347 0.00073805277 -0.006233029 -0.024795512 0.009391746
-0.09065975 0.026057592 0.01647272 0.026965223 -0.029555723 -0.00632498 0.02939174 -0.010880199
0.04140929 -0.0023736136 0.025003241 -0.02516543 0.037489314 0.00863031 -0.036573667 -0.051396593
0.009488045 0.02388172 -0.016142342 -0.047961783 -0.025382357 0.010186855 0.0012166484 0.010684993
0.016544038 -0.04691543 -0.0438637 -0.032361094 -0.027371362 -0.07113808 0.03207715 -0.037784267
-0.04305833 0.034580898 -0.032556407 0.03470103 0.047395103 0.038617957 -0.036010474 0.021188544
0.055182267 -0.041610464 -0.026361398 -0.01664141 0.0006151443 -0.02094412 -0.023524875 0.018254671
0.04033692 0.019359061 -0.012062442 -0.05669148 -0.05267996 0.019963467 0.015081918 0.03626289
0.009774887 -0.046577223 0.02585175 -0.00076455827 -0.0021153386 -0.035611372 -0.033662323 -0.0056106052
-0.07277466 -0.04022317 0.015760407 0.0038592555 0.024573289 -0.03023383 0.0045907246 0.0068733706
-0.023122266 -0.046169367 0.0055979746 -0.045223314 0.0072625694 0.012608902 0.01006907 0.04570461
-0.0009823075 0.030544471 -0.019578537 -0.04177133 -0.03189136 0.015962342 -0.055267174 0.055617474
-0.03415514 -0.046065427 0.018021172 0.0054613156 0.019114565 -0.067763515 0.035109 0.019476734
-0.091323145 0.01272114 0.012061809 0.037287086 0.025928931 0.038257234 -0.004131771 0.04752653
0.025448143 -0.009009468 0.011158238 0.022014642 0.037229456 -0.038022347 -0.03418143 0.0010652626
-0.043787815 -0.0119868545 0.013150091 -0.0117333885 -0.049519308 -0.05276416 0.02707686 -0.028512958
0.027955482 -0.008624787 0.01806858 0.03617791 -0.04425851 -0.025988968 0.013374835 -0.02546851
-0.11310161 -0.030636257 -0.04125731 0.026519839 0.029512502 -0.005973066 -0.040056955 0.052296598
-0.02285511 -0.023667742 0.031029465 -0.033651773 0.023155818 0.034988098 0.036356535 -0.024776269
0.027546458 0.024979234 0.01589136 -0.04894179 -0.064488925 -0.012387017 -0.04348157 0.04437988
-0.035043754 -0.017924467 -0.030292084 0.0054649073 -0.00051909103 -0.06412315 0.018452415 -0.01855587
00000000: 158a a5bd 2479 2d3d d09e b2bc 9b93 083d
00000010: 6f3f f6bc 20ad 963c cc5a 88ba 7296 10bc
00000020: 334a 023c 7992 08bc a747 3c3d 4251 3abc
00000030: 2a79 ed3c d1b8 4fbc 22b8 d3bc 8a80 8cbc
00000040: 69b1 16bd f2bb 54bd a5ba d23b 9e22 8cbd
00000050: bb6a 06bd a4a6 3abd 3c92 493c 2e8b 993c
00000060: 1e30 8a3b 3315 88bd 7efe 8fbc 8c4c 9a3c
00000070: e807 983c 95af 23bd 9840 103d 7834 a7bc
00000080: 379b 07bd ba33 ae3c 19b4 7fbd e1ef febc
00000090: a2d7 8cba 09a4 59bd 8560 d93c b260 e63c
000000a0: 06f5 393d 3cb7 bcbc b9d9 a7bc 931f e6bc
000000b0: 1c7a f73c e6f4 173c b008 dd3c a6c3 1fbd
000000c0: 4278 153c 8757 a7bc 2d3b 07bd b48d 9abd
000000d0: e6f1 14bd 94fb 8bbc ab09 d23c 8316 013d
000000e0: 31e3 bbbc 3912 bbbc 3a60 febc a86d 543d
000000f0: ac43 8ebc a6d7 84bd b2fa 0bbd b762 27bd
00000100: acd4 91bd 6aaa 073d 424c 2dbd a6a4 503d
00000110: 836e 35bd de21 c63c 3532 2f3d 60e6 223d
00000120: 86a3 79bc a3d7 d0bc d112 eb3c a880 71bc
00000130: 33ec 643b 6dfb 21bd 1b93 c13c 77ef ffbc
00000140: 4827 2cbd 3d50 d03c f811 c53c d5a0 8bbd
00000150: dc51 04bd fc53 16bc a19a 21bd 84df 973b
00000160: 565c e1bc 524f 203a 377c 19bd fdfd 483d
00000170: e279 413a 703e ccbb f51f cbbc d6df 193c
00000180: d2ab b9bd bb76 d53c ccf1 863c 2ce6 dc3c
00000190: d81e f2bc c741 cfbb f2c6 f03c dd42 32bc
000001a0: ca9c 293d a18e 1bbb 99d3 cc3c bb27 cebc
000001b0: 658e 193d 2566 0d3c 45ce 15bd 3c85 52bd
000001c0: bf73 1b3c 99a3 c33c f23c 84bc 9373 44bd
000001d0: a9ee cfbc c4e6 263c f277 9f3a 1c10 2f3c
000001e0: 5d87 873c 652a 40bd 6caa 33bd 118d 04bd
000001f0: e839 e0bc d7b0 91bd 5463 033d adc3 1abd
00000200: ee5d 30bd b3a4 0d3d de59 05bd ab22 0e3d
00000210: 5e21 423d dd2d 1e3d b87f 13bd 9993 ad3c
00000220: cd06 623d bc6f 2abd dcf3 d7bc 9153 88bc
00000230: a341 213a 0193 abbc 3db7 c0bc d28a 953c
00000240: 5438 253d e596 9e3c 8ca1 45bc 5335 68bd
00000250: f1c6 57bd 6d8a a33c 261a 773c 6588 143d
00000260: d926 203c c2c7 3ebd 0dc7 d33c a36c 48ba
00000270: 7ea1 0abb 3bdd 11bd 81e1 09bd 2bd9 b7bb
00000280: e20a 95bd 0dc1 24bd f81b 813c 90eb 7c3b
00000290: ec4d c93c f0ac f7bc ca6d 963b 033a e13b
000002a0: e86a bdbc 171c 3dbd 376f b73b 153c 39bd
000002b0: d9fa ed3b 9195 4e3c bef8 243c c234 3b3d
000002c0: c5c0 80ba 6638 fa3c 2b63 a0bc 6a18 2bbd
000002d0: 84a0 02bd 75c3 823c d55f 62bd 26cf 633d
000002e0: 43e6 0bbd 1aaf 3cbd 23a1 933c d6f4 b23b
000002f0: 2696 9c3c 99c7 8abd 74ce 0f3d ac8d 9f3c
00000300: a107 bbbd 546c 503c e59e 453c 58ba 183d
00000310: e968 d43c 9eb3 1c3d cf63 87bb 2eab 423d
00000320: a078 d03c 739c 13bc 0bd1 363c 0d58 b43c
00000330: ea7d 183d 52bd 1bbd d401 0cbd 48a0 8b3a
00000340: da5a 33bd 8364 44bc 7b73 573c 663d 40bc
00000350: c2d4 4abd 3b1f 58bd 4bd0 dd3c 0294 e9bc
00000360: e502 e53c fb4e 0dbc 8f04 943c 4a2f 143d
00000370: 6948 35bd d1e6 d4bc 2022 5b3c 56a3 d0bc
00000380: d1a1 e7bd e3f8 fabc 6dfd 28bd 2240 d93c
00000390: 34c4 f13c b6b9 c3bb c312 24bd f534 563d
000003a0: a43a bbbc dae2 c1bc 8131 fe3c 71d6 09bd
000003b0: 45b1 bd3c ae4f 0f3d 97ea 143d 9af7 cabc
000003c0: 1ca9 e13c 40a1 cc3c 992e 823c 3077 48bd
000003d0: c512 84bd eaf2 4abc bb19 32bd adc7 353d
000003e0: 0a8a 0fbd 55d6 92bc 1b27 f8bc f712 b33b
000003f0: 9c13 08ba 0053 83bd 8529 973c 7b02 98bc

arith.constant5 f4 [32, 3, 3, 32]
0.083042085 -0.13388397 -0.005026785 -0.013395418 0.015444714 -0.002370101 -0.094399594 0.08100184
0.16702995 -0.03256263 0.076493554 -0.10746407 0.10707566 0.023834268 0.12572922 -0.12526329
-0.06344151 0.12562697 0.0054147267 -0.10598138 -0.01904074 -0.14419845 -0.17978375 0.23214947
-0.024631588 0.0117303785 -0.098372355 -0.064696416 0.2419236 0.05503918 0.034834582 0.021626653
0.107265614 0.027931267 0.06606848 -0.04153391 0.02273865 0.03674669 -0.07950147 0.076181136
0.044759773 -0.08849532 0.1478861 -0.06756671 -0.016821021 0.13181423 0.12111717 -0.022162367
0.06341221 0.11285848 0.11304014 -0.0924868 -0.005723474 -0.041013148 -0.077378385 0.06213184
-0.028803894 -0.008310331 -0.13944073 0.052002434 0.23213547 0.018984089 -0.024155749 0.032264408
0.08046823 -0.0031324187 0.07954896 -0.00074455776 0.060254544 -0.037001297 -0.2067531 0.08075007
-0.007403357 -0.06838106 0.20320661 -0.095176876 -0.024068946 0.121990114 0.051661044 -0.02192035
-0.059417788 0.12678535 -0.00016081087 -0.099053204 0.10126986 0.00065944326 -0.12542462 0.0812947
0.012478035 -0.050503105 -0.15768993 0.08040714 0.060495473 0.03590312 -0.005646932 -0.056043666
-0.023913614 -0.11091661 -0.06805932 -0.14591092 -7.8681405e-05 -0.049603105 -0.027768038 0.09116521
0.109887175 -0.1590199 0.21222094 0.060696226 -0.021791656 -0.09795608 0.0054296926 -0.07817929
0.054198597 -0.15687418 -0.019074103 -0.111878835 0.08135445 -0.15596999 -0.059693422 0.06213782
0.088528305 -0.067489594 0.06559172 -0.06650807 0.16948073 0.08956498 -0.06825429 -0.0028380635
0.033934653 -0.043491557 -0.0501293 -0.13762288 0.013831101 -0.017678622 -0.04619647 -0.040089402
0.010530597 -0.18739696 0.12654212 0.050091907 0.0053150565 0.046100397 0.011623923 -0.024266595
0.008446448 -0.13334844 0.10403609 -0.21393469 0.0076117213 -0.14514926 -0.0694116 0.04218381
0.06486961 -0.1271352 -0.022688765 0.01761548 0.0833266 -0.04930818 -0.014577046 0.036692426
-0.010900154 0.033031248 0.028289223 -0.077773385 -0.0051326095 0.023578338 -0.07351787 -0.021198312
-0.045268916 -0.118674695 0.054252792 0.048319027 -0.07668883 -0.08532283 0.082805395 0.061056495
-0.017296478 0.015422148 0.08282078 -0.12175515 -0.01998041 -0.11184826 -0.09949891 0.11106404
0.02508105 0.022173205 0.044403743 0.07210415 0.07028102 0.048492905 -0.063764855 -0.008439208
-0.0779582 0.008032276 0.06529995 0.022577135 -0.13098827 -0.064641856 -0.17200221 -0.09063608
0.01979873 -0.088955946 0.20031083 -0.08201412 -0.01521717 -0.08262696 0.049967363 -0.0025334526
-0.060586188 -0.1716824 -0.12847792 -0.21748546 -0.102400176 -0.13323826 -0.035497144 0.04829338
0.051065896 -0.07406432 0.019952344 -0.018457858 0.036291923 -0.09253965 -0.05874985 -0.051863134
-0.12118918 -0.02490322 -0.038807843 -0.04155357 -0.06784846 -0.02608002 -0.11831193 -0.042388927
0.069763966 -0.07517272 0.13589509 -0.064408615 -0.10804342 -0.025271427 0.018544998 0.021389695
-0.038651455 -0.17206207 -0.13443324 -0.17949031 -0.111634806 0.020332403 -0.06859738 0.22429793
-0.0604735 -0.08442838 0.10105248 -0.00076132215 -0.007166979 -0.047704533 -0.049097147 -0.047458343
00000000: f811 aa3d e118 09be bbb7 a4bb 7578 5bbc
00000010: d30b 7d3c b253 1bbb 9354 c1bd 4be4 a53d
00000020: e609 2b3e 6460 05bd a7a8 9c3d 1f16 dcbd
00000030: 7c4a db3d 1540 c33c 29bf 003e 0545 00be
00000040: 9fed 81bd 5ba4 003e 056e b13b c40c d9bd
00000050: 53fb 9bbc c2a8 13be 3b19 38be 97b8 6d3e
00000060: 2fc8 c9bc c630 403c 7277 c9bd 8e7f 84bd
00000070: d2ba 773e c370 613d b5ae 0e3d 612a b13c
00000080: 13ae db3d 1dd0 e43c e94e 873d 761f 2abd
00000090: 6846 ba3c b283 163d abd1 a2bd db04 9c3d
000000a0: 0656 373d 093d b5bd 746f 173e 6a60 8abd
000000b0: 3dcc 89bc 4ffa 063e 470c f83d da8d b5bc
000000c0: 43de 813d 5922 e73d 9781 e73d b869 bdbd
000000d0: fb8b bbbb 67fd 27bd 8f78 9ebd f57d 7e3d
000000e0: 25f6 ebbc 0e28 08bc 8dc9 0ebe 8100 553d
000000f0: ecb4 6d3e 8584 9b3c 47e2 c5bc af27 043d
00000100: 87cc a43d 4449 4dbb 91ea a23d 6d2e 43ba
00000110: 78cd 763d ac8e 17bd 16b7 53be 4b60 a53d
00000120: dc97 f2bb 5f0b 8cbd 6515 503e 18ec c2bd
00000130: 3d2c c5bc f4d5 f93d 889a 533d 4e92 b3bc
00000140: 1160 73bd 05d4 013e 579f 28b9 68dc cabd
00000150: 9366 cf3d 7dde 2c3a 506f 00be d67d a63d
00000160: ac70 4c3c 58dc 4ebd 7879 21be 80ac a43d
00000170: 1aca 773d 260f 133d e609 b9bb 0b8e 65bd
00000180: 7ce6 c3bc 3f28 e3bd af62 8bbd ac69 15be
00000190: c201 a5b8 a02c 4bbd cc79 e3bc d3b4 ba3d
000001a0: 870c e13d 1dd6 22be 7250 593e 9b9c 783d
000001b0: 6a84 b2bc 339d c8bd 90eb b13b 771c a0bd
000001c0: 59ff 5d3d a0a3 20be 4b41 9cbc bb20 e5bd
000001d0: 299d a63d 99b6 1fbe 1781 74bd 3a84 7e3d
000001e0: 544e b53d fc37 8abd f454 863d 6235 88bd
000001f0: 5b8c 2d3e d86d b73d e8c8 8bbd cefe 39bb
00000200: 10ff 0a3d 3424 32bd 6254 4dbd 03ed 0cbe
00000210: d89b 623c c2d2 90bc 8238 3dbd c934 24bd
00000220: 8688 2c3c fde4 3fbe 4294 013e 2c2d 4d3d
00000230: ed29 ae3b c5d3 3c3d 4472 3e3c bdca c6bc
00000240: f862 0a3c 7e8c 08be e010 d53d b211 5bbe
00000250: bf6b f93b 02a2 14be ab27 8ebd eec8 2c3d
00000260: 5cda 843d bb2f 02be cadd b9bc 574e 903c
00000270: 23a7 aa3d 60f7 49bd 90d4 6ebc cc4a 163d
00000280: 8f96 32bc c64b 073d cdbe e73c a747 9fbd
00000290: 732f a8bb 5c27 c13c 8990 96bd 15a8 adbc
000002a0: e66b 39bd b80b f3bd 2d38 5e3d 2cea 453d
000002b0: 090f 9dbd bcbd aebd e095 a93d 6016 7a3d
000002c0: 58b1 8dbc 2dad 7c3c f19d a93d c45a f9bd
000002d0: f5ad a3bc b310 e5bd 16c6 cbbd 8b75 e33d
000002e0: c676 cd3c 95a4 b53c b3e0 353d 57ab 933d
000002f0: 7fef 8f3d 7fa0 463d 2697 82bd 9b44 0abc
00000300: 8ca8 9fbd cf99 033c fbbb 853d aff3 b83c
00000310: ca21 06be f362 84bd 5921 30be 699f b9bd
00000320: f230 a23c 892e b6bd 481e 4d3e 05f7 a7bd
00000330: 7051 79bc 5338 a9bd 94aa 4c3d 4808 26bb
00000340: 3929 78bd 83cd 2fbe b78f 03be 82b4 5ebe
00000350: 2fb7 d1bd 9c6f 08be 7465 11bd 47cf 453d
00000360: 792a 513d 09af 97bd 1973 a33c ef34 97bc
00000370: d7a6 143d 6e85 bdbd afa3 70bd 706e 54bd
00000380: 0832 f8bd d601 ccbc f9f4 1ebd 1434 2abd
00000390: 22f4 8abd c4a5 d5bc 864d f2bd 03a0 2dbd
000003a0: 69e0 8e3d 28f4 99bd 1528 0b3e aae8 83bd
000003b0: de45 ddbd 0606 cfbc aeeb 973c 7139 af3c
000003c0: fd50 1ebd 0a31 30be dea8 09be 4fcc 37be
000003d0: caa0 e4bd 2490 a63c c87c 8cbd 5bae 653e
000003e0: 10b3 77bd c9e8 acbd 9af4 ce3d 7793 47ba
000003f0: fad8 eabb d465 43bd 171a 49bd ae63 42bd

arith.constant6 f4 [256, 32]
-4.4186785e-21 -9.223104e-22 -7.3521726e-19 7.508731e-20 -3.1459184e-20 -3.8464183e-08 3.7705017e-09 4.361563e-20
5.3936363e-16 -1.3594688e-05 1.1791894e-06 -2.3959028e-19 3.0818076e-17 -6.933558e-10 -2.5545856e-20 2.3369902e-13
6.8816606e-20 -9.005104e-19 -1.2224591e-18 -1.3402487e-18 -2.9632586e-08 4.459568e-20 1.4545279e-18 4.811654e-16
2.4534512e-21 -1.0252014e-15 -6.2522943e-21 -4.6621697e-21 -2.4866558e-20 -1.0366573e-18 2.2530104e-18 -5.910965e-06
-2.505746e-39 -4.999295e-39 1.703441e-39 -6.71547e-40 5.809133e-39 2.332299e-39 -6.134324e-39 3.791084e-39
-5.45901e-39 6.86434e-40 -1.156195e-39 -1.895542e-39 -5.927515e-39 -4.41779e-39 5.053284e-39 4.039148e-39
-3.099269e-39 -3.785703e-39 2.579645e-39 -3.38751e-39 -1.20552e-39 -3.563648e-39 -3.321145e-39 -1.492865e-39
2.520633e-39 3.407958e-39 2.015717e-39 1.235295e-39 3.567953e-39 -1.70936e-40 2.652647e-39 4.945126e-39
4.673566e-39 -3.482395e-39 2.04029e-39 -2.554713e-39 3.771533e-39 5.157855e-39 -1.483897e-39 -4.640024e-39
4.95804e-39 6.550992e-39 -9.16382e-40 -5.384753e-39 3.930272e-39 -5.132026e-39 1.59905e-39 -1.558334e-39
-3.33657e-39 6.242e-41 5.687344e-39 1.112609e-39 -6.71278e-39 2.231136e-39 8.16296e-40 -6.204815e-39
4.458506e-39 -1.388833e-39 -6.135042e-39 2.513638e-39 2.376423e-39 6.281046e-39 6.728026e-39 1.070996e-39
-9.50103e-40 -2.8017e-39 -6.196385e-39 -6.326784e-39 -3.48509e-40 -2.195263e-39 3.193257e-39 2.23311e-40
8.58985e-40 -7.067e-41 -1.276729e-39 -1.54255e-39 -2.947345e-39 2.855869e-39 2.344137e-39 -3.496206e-39
2.414807e-39 -4.00525e-40 1.45179e-39 -3.814222e-39 -6.38723e-39 -3.94785e-40 1.099335e-39 -5.39534e-40
-6.274768e-39 -6.463461e-39 -1.139334e-39 2.028452e-39 -4.41492e-39 4.837865e-39 -4.289005e-39 3.824446e-39
-0.004560012 -0.0046371478 -0.004527943 -0.004645218 -0.004617534 -0.004574804 -0.0045964997 -0.004480836
-0.004656674 -0.0045700967 -0.004509894 -0.0042333803 -0.0042484985 -0.004476456 -0.004410609 -0.004626803
-0.0043342635 -0.0043575056 -0.0045983633 -0.0046109557 -0.004607986 -0.00460121 -0.0046281735 -0.004455749
-0.004545098 -0.004376262 -0.0046108156 -0.0046210685 -0.004334942 -0.0038144533 -0.004628823 -0.0046111653
-0.017169239 0.047757227 -0.04970656 0.045431692 -0.11434468 -0.060946565 -0.09927966 0.09903651
0.16542049 0.010068695 0.15798917 -0.19200338 0.10817581 0.06294131 0.09229353 -0.018989066
0.05272298 0.113862835 -0.11073384 0.119665295 0.0770713 -0.036318477 -0.03608897 0.106974825
-0.098704904 0.1015956 -0.107675634 0.14510016 0.013527011 0.075435445 -0.13192667 0.009470542
6.134145e-39 -5.330405e-39 -5.373811e-39 5.044316e-39 5.644116e-39 -5.927336e-39 -2.769414e-39 1.162472e-39
3.04797e-39 -9.7916e-40 7.099314e-39 1.651425e-39 -1.01898e-39 -1.995987e-39 1.418787e-39 2.757397e-39
-4.32452e-40 -6.0285e-40 -7.101287e-39 -1.879399e-39 -4.529355e-39 -2.259117e-39 3.31648e-40 -6.651437e-39
-8.4033e-40 2.199209e-39 -5.715145e-39 -3.56867e-39 2.678117e-39 3.774941e-39 2.735335e-39 -2.64601e-39
0.04391775 -0.17544346 0.08989446 0.15093705 0.07036417 -0.011914991 -0.19191568 0.11521799
-0.16799581 -0.069612354 0.05194639 -0.024250297 0.07813564 0.0035637496 0.06320631 0.014073817
0.086580954 -0.04632392 -0.02031386 -0.06999384 -0.31262743 -0.09799871 0.08167402 -0.07902211
0.037049808 0.08524823 -0.03787575 -0.01845387 0.09340759 0.004913097 -0.18714418 0.05945351
00000000: d6ee a69d 2860 8b9c 72ff 58a1 7e4b b11f
00000010: d28f 149f d133 25b3 af8d 8131 10f8 4d1f
00000020: 0376 1b26 be14 64b7 a444 9e35 dc6d 8da0
00000030: 901f 0e24 9496 3eb0 1746 f19e 948f 832a
00000040: 167d a21f 52e4 84a1 3367 b4a1 2ac9 c5a1
00000050: bf8a feb2 de98 521f 83a6 d621 bdaf 0a26
00000060: a660 391d 41bf 93a6 7b34 ec9d bd21 b09d
00000070: a6db ea9e cefb 98a1 2a3e 2622 cd56 c6b6
00000080: 0049 1b80 0070 3680 808c 1200 0050 0780
00000090: 8041 3f00 8065 1900 00cc 4280 0048 2900
000000a0: 8071 3b80 8079 0700 0097 0c80 00a4 1480
000000b0: 808b 4080 001b 3080 8006 3700 80fb 2b00
000000c0: 80bf 2180 0039 2980 0017 1c00 00e3 2480
000000d0: 8020 0d80 00ce 2680 002a 2480 8041 1080
000000e0: 8072 1b00 001c 2500 00f3 1500 8073 0d00
000000f0: 00da 2600 80dc 0180 80e2 1c00 00d9 3500
00000100: 00e4 3200 80eb 2580 8037 1600 80d1 1b80
00000110: 8011 2900 002a 3800 8028 1080 8086 3280
00000120: 00fd 3500 8055 4700 80fa 0980 80a2 3a80
00000130: 00cc 2a00 00e2 3780 8069 1100 00f8 1080
00000140: 0055 2480 00ae 0000 00ee 3d00 801d 0c00
00000150: 8018 4980 804b 1800 80e3 0800 8090 4380
00000160: 808c 3000 801f 0f80 00ce 4280 005f 1b00
00000170: 80e0 1900 0065 4400 0043 4900 80a9 0b00
00000180: 8058 0a80 0082 1e80 0079 4380 80e4 4480
00000190: 80cb 0380 80e7 1780 80c5 2200 806e 0200
000001a0: 805a 0900 00c5 0080 00e7 0d80 00cc 1080
000001b0: 0018 2080 0019 1f00 8086 1900 0012 2680
000001c0: 804b 1a00 805c 0480 00cf 0f00 8088 2980
000001d0: 008d 4580 804c 0480 80f8 0b00 00e0 0580
000001e0: 8053 4480 8061 4680 0068 0c80 8016 1600
000001f0: 0013 3080 00ae 3400 00b4 2e80 00a5 2900
00000200: 276c 95bb 37f3 97bb 245f 94bb ea36 98bb
00000210: af4e 97bb 3de8 95bb 3c9e 96bb fad3 92bb
00000220: 0397 98bb c0c0 95bb bcc7 93bb 2bb8 8abb
00000230: fd36 8bbb 3caf 92bb df86 90bb 709c 97bb
00000240: 7006 8ebb 68c9 8ebb dead 96bb 8017 97bb
00000250: 97fe 96bb bfc5 96bb efa7 97bb 8801 92bb
00000260: 0cef 94bb bf66 8fbb 5316 97bb 556c 97bb
00000270: 210c 8ebb e8fb 79bb 62ad 97bb 4219 97bb
00000280: 81a6 8cbc 159d 433d 1b99 4bbd 9516 3a3d
00000290: 8b2d eabd 1ba3 79bd 2253 cbbd a7d3 ca3d
000002a0: fd63 293e 2bf7 243c eac7 213e 899c 44be
000002b0: 478b dd3d 60e7 803d 6404 bd3d f58e 9bbc
000002c0: 0df4 573d eb30 e93d 6cc8 e2bd 1413 f53d
000002d0: 8fd7 9d3d afc2 14bd 07d2 13bd 9e15 db3d
000002e0: cc25 cabd 5b11 d03d 0b85 dcbd 2395 143e
000002f0: 65a0 5d3c e67d 9a3d c917 07be 552a 1b3c
00000300: 80cb 4200 000b 3a80 0084 3a80 80ed 3600
00000310: 8075 3d00 008b 4080 0028 1e80 80a8 0c00
00000320: 8030 2100 80a9 0a80 004e 4d00 80fb 1100
00000330: 8018 0b80 00bc 1580 0073 0f00 8006 1e00
00000340: 80b5 0480 8090 0680 8053 4d80 0077 1480
00000350: 0052 3180 8099 1880 809c 0300 806d 4880
00000360: 8026 0980 80f2 1700 803b 3e80 00dc 2680
00000370: 8029 1d00 001b 2900 00c9 1d00 00d0 1c80
00000380: 19e3 333d 73a7 33be 961a b83d 3e8f 1a3e
00000390: 171b 903d 1837 43bc 8b85 44be 69f7 eb3d
000003a0: 1807 2cbe ec90 8ebd bdc5 543d 8fa8 c6bc
000003b0: 9405 a03d cc8d 693b 4f72 813d de95 663c
000003c0: 5b51 b13d 27be 3dbd 4169 a6bc ee58 8fbd
000003d0: b410 a0be 8cb3 c8bd b544 a73d 58d6 a1bd
000003e0: 8ac1 173d a096 ae3d 9a23 1bbd 922c 97bc
000003f0: 7b4c bf3d 0bfe a03b b9a2 3fbe 8685 733d

arith.constant7 f4 [256]
-0.021870593 -0.0055586565 -0.0054464787 -0.013341882 -0.03658632 -0.014023692 -0.015448269 0.017362686
0.089533426 -0.014965314 -0.07338926 -0.002302664 -0.027413916 -0.054836486 -0.015278662 -0.017855577
-0.008667356 0.019562902 0.076810494 -0.02060223 0.049947124 -0.009341267 -0.024840102 -0.0077249305
-0.021394374 0.028291801 -0.005079454 0.07340065 -0.021946905 0.02248278 -0.020067416 0.036736034
0.008003443 -0.089582115 0.0036849186 -0.007229716 -0.01835441 -0.010896542 -0.043512654 0.023049258
-0.0050782636 0.03686353 0.09307652 0.015764492 -0.036150932 -0.014231053 -0.009099369 -0.015148487
-0.033639174 -0.019283952 -0.011481674 -0.005969429 -0.030600335 0.019815762 -0.014095763 -0.009951049
0.0339523 -0.03162412 -0.010315237 -0.007854759 -0.04915794 -0.004674318 0.0517208 -0.043108355
-0.020786641 -0.03548164 -0.08266763 0.00910231 0.0011836888 0.024873843 0.00030251793 -0.0016012582
-0.016021263 0.01915315 0.008308749 -0.00796391 -0.0034779287 -0.05838321 -0.014378979 -0.0011788652
-0.0073759295 -0.02121604 -0.005136915 0.0008978696 0.0018116664 -0.023578348 -0.034493625 -0.00917468
0.061686147 -0.015987614 -0.020468513 -0.015581401 0.046301372 -0.022017306 0.012964604 0.08113285
0.022890918 -0.009895971 -0.009055382 -0.018376784 0.08851914 -0.0032047941 0.06469484 0.024176797
-0.05350254 -0.021175642 -0.018352106 -0.03664069 -0.00920898 -0.006890687 -0.0056393174 0.008351116
-0.008671894 -0.017003067 0.0422452 -0.017387591 -0.0026309458 -0.027309803 -0.009356248 -0.011108902
-0.0095989825 -0.0073673273 -0.018771593 0.01297944 -0.012016508 -0.056166973 -0.011438811 -0.014049901
0.03853377 -0.04368029 -0.013528234 -0.013141354 0.019516708 -0.0015073493 -0.033063482 -0.015729178
-0.029160641 0.02871947 0.015041358 0.0047512203 0.005717087 0.01819593 -0.018851705 0.006859666
-0.015262818 0.11382617 -0.0074478663 0.030447047 0.0062500113 -0.07620866 -0.00864074 -0.018443234
0.019376311 -0.027103655 -0.040271603 -0.0076025166 -0.004560681 0.029705398 -0.0059890654 0.0018103609
-0.024802454 -0.012094801 0.005209614 -0.0017534974 -0.02815746 -0.012518867 -0.0074473503 -0.008977058
-0.00039083292 -0.0049877455 0.0011995356 -0.007879112 0.018667446 -0.011199455 0.08587505 -0.0040375805
0.00493521 0.016335418 -0.024088623 0.025122402 0.014817988 -0.01993185 0.024812602 -0.020151393
0.062794566 -0.03290821 0.021927621 -0.0025148443 0.030420447 -0.01058831 -0.0072424347 0.017331595
0.090413295 -0.01189941 -0.020315751 -0.010424618 0.041383762 0.0016258855 -0.05503418 -0.013398873
-0.0060489858 0.003981572 -0.016219703 0.04825618 -0.060278073 0.110065125 -0.00887211 0.012997382
-0.078324236 0.028211646 0.011811253 0.033323195 -0.016059287 0.0694766 0.013273296 -0.012990298
0.008739401 -0.014683816 -0.026661603 -0.026566556 -0.0133746555 -0.008712529 -0.0033439219 -0.004063452
-0.01612911 0.046825614 -0.00997488 -0.019876001 -0.04536483 0.010857142 -0.00010820781 -0.02258047
-0.019886574 -0.100557305 0.0448375 -0.036410104 -0.040007934 -0.0112551255 -0.0011679492 -0.027655361
0.033341467 0.013428349 0.021627804 -0.054946467 -0.100050405 -0.024185313 -0.009231633 -0.010068036
-0.010158557 -0.009498569 -0.020175574 -0.0070830747 -0.014959496 -0.0055586956 -0.024441833 -0.008392087
00000000: f529 b3bc 6425 b6bb 6078 b2bb e997 5abc
00000010: 89db 15bd a1c3 65bc bd1a 7dbc 313c 8e3c
00000020: 4d5d b73d 1431 75bc 1c4d 96bd 4be8 16bb
00000030: 2693 e0bc 399c 60bd 5a53 7abc dc45 92bc
00000040: 8701 0ebc 6142 a03c d24e 9d3d 02c6 a8bc
00000050: 5b95 4c3d 1d0c 19bc 787d cbbc 6a21 fdbb
00000060: 4143 afbc 35c4 e73c 8c71 a6bb 1453 963d
00000070: ffc9 b3bc cf2d b83c 6c64 a4bc 8678 163d
00000080: df20 033c d476 b7bd ad7e 713b 41e7 ecbb
00000090: fd5b 96bc 6987 32bc 533a 32bd ccd1 bc3c
000000a0: 9067 a6bb 36fe 163d e79e be3d 8924 813c
000000b0: 0013 14bd 5d29 69bc 8515 15bc 5c31 78bc
000000c0: 3bc9 09bd 61f9 9dbc a21d 3cbc 339b c3bb
000000d0: 8ead fabc aa54 a23c eaf1 66bc ba09 23bc
000000e0: 9111 0b3d 4b88 01bd 3d01 29bc 3fb1 00bc
000000f0: d659 49bd 052b 99bb 31d9 533d 6392 30bd
00000100: bf48 aabc 3255 11bd a54d a9bd db21 153c
00000110: 0126 9b3a 3bc4 cb3c 459b 9e39 4fe1 d1ba
00000120: 063f 83bc 11e7 9c3c 6b21 083c 0f7b 02bc
00000130: f6ed 63bb 3c23 6fbd cf95 6bbc 2784 9aba
00000140: c8b1 f1bb 43cd adbc 9153 a8bb 025f 6b3a
00000150: 7075 ed3a 6127 c1bc 3049 0dbd 6651 16bc
00000160: 9daa 7c3d 75f8 82bc 95ad a7bc 2249 7fbc
00000170: 82a6 3d3d a35d b4bc 7e69 543c fb28 a63d
00000180: bc85 bb3c b622 22bc 065d 14bc e98a 96bc
00000190: 8649 b53d 8607 52bb ba7e 843d 6b0e c63c
000001a0: 7b25 5bbd 8a78 adbc 2857 96bc 8c14 16bd
000001b0: 43e1 16bc 46cb e1bb 06ca b8bb 1fd3 083c
000001c0: 8f14 0ebc 044a 8bbc 4e09 2d3d 6c70 8ebc
000001d0: f26b 2cbb cfb8 dfbc f34a 19bc 1d02 36bc
000001e0: 0d45 1dbc 9f69 f1bb e2c6 99bc b8a7 543c
000001f0: e3e0 44bc 570f 66bd da69 3bbc 8e31 66bc
00000200: 96d5 1d3d 1bea 32bd 87a5 5dbc d54e 57bc
00000210: 81e1 9f3c 4092 c5ba 936d 07bd 7ada 80bc
00000220: 4ce2 eebc 1845 eb3c 0770 763c 20b0 9b3b
00000230: 6756 bb3b a20f 953c e46e 9abc 0dc7 e03b
00000240: e610 7abc b21d e93d 3b0d f4bb 166c f93c
00000250: e5cc cc3b 4913 9cbd e491 0dbc 4416 97bc
00000260: 12bb 9e3c 7c08 debc d6f3 24bd 881e f9bb
00000270: c471 95bb bc58 f33c ec3f c4bb a249 ed3a
00000280: 842e cbbc 4629 46bc 69b5 aa3b 9cd5 e5ba
00000290: 79aa e6bc ef1b 4dbc e708 f4bb 8314 13bc
000002a0: b5e8 ccb9 3e70 a3bb bc39 9d3a 6417 01bc
000002b0: 79ec 983c eb7d 37bc 42df af3d ae4d 84bb
000002c0: 8bb7 a13b dbd1 853c 8155 c5bc 7fcd cd3c
000002d0: 25c7 723c 1e48 a3bc cc43 cb3c 8914 a5bc
000002e0: 709a 803d c2ca 06bd 8ea1 b33c 16d0 24bb
000002f0: 4d34 f93c 977a 2dbc f251 edbb fdfa 8d3c
00000300: 9b2a b93d bef5 42bc 386d a6bc 04cc 2abc
00000310: 0582 293d aa1b d53a 856b 61bd f286 5bbc
00000320: 9236 c6bb d977 823b 2fdf 84bc 46a8 453d
00000330: 24e6 76bd d369 e13d 545c 11bc f9f2 543c
00000340: 7568 a0bd 1c1c e73c fc83 413c e77d 083d
00000350: c48e 83bc bf49 8e3d 3d78 593c 42d5 54bc
00000360: b42f 0f3c 6394 70bc 6f69 dabc 1ba2 d9bc
00000370: 5f21 5bbc ffbe 0ebc b325 5bbb b526 85bb
00000380: 3221 84bc 37cc 3f3d ae6d 23bc ffd2 a2bc
00000390: 79d0 39bd 27e2 313c a0ed e2b8 aefa b8bc
000003a0: 2be9 a2bc fdf0 cdbd 87a7 373d c322 15bd
000003b0: 5cdf 23bd 6b67 38bc df15 99ba 7f8d e2bc
000003c0: 1091 083d 9402 5c3c cb2c b13c 8c0f 61bd
000003d0: 3ae7 ccbd 4720 c6bc 4640 17bc 67f4 24bc
000003e0: 1470 26bc e39f 1bbc 3f47 a5bc 2319 e8bb
000003f0: ad18 75bc b825 b6bb 3d3a c8bc f77e 09bc

functional_359_1/batch_normalization_43_1/batchnorm/mul f4 [32]
2.210491 18.65925 2.8222299 29.517538 19.681719 31.887743 33.381367 3.7129478
21.738577 27.904554 34.46477 41.553734 6.321048 8.446645 2.9970412 22.748663
26.764208 35.66129 15.808346 30.887762 33.006943 37.17702 29.812542 29.231157
18.699293 28.877172 17.290014 21.118654 31.492517 2.6801877 24.707277 26.399683
00000000: af78 0d40 2546 9541 6a9f 3440 eb23 ec41
00000010: 2974 9d41 191a ff41 8586 0542 f0a0 6d40
00000020: 9be8 ad41 873c df41 eddb 0942 0637 2642
00000030: 0646 ca40 7525 0741 86cf 3f40 43fd b541
00000040: 191d d641 29a5 0e42 fcee 7c41 231a f741
00000050: 1c07 0442 45b5 1442 1680 ee41 69d9 e941
00000060: 2798 9541 7304 e741 f351 8a41 01f3 a841
00000070: adf0 fb41 3288 2b40 81a8 c541 8d32 d341

functional_359_1/batch_normalization_43_1/batchnorm/sub f4 [32]
-1.6796823 -0.11475593 -2.2518473 -0.033359867 -0.60930437 -0.08309278 -0.00864616 -1.1768643
-0.8660822 -0.06580648 -0.22156659 0.022001468 -2.410549 -0.9249676 -1.4494613 -0.3637672
-0.08498729 0.05395192 -0.39668977 0.13247782 -0.023132877 0.029709082 -0.03309109 -0.1579441
-0.9031701 -0.046953324 -1.8189527 -1.0688969 -0.14431271 -1.5529058 -0.94982755 -0.030942902
00000000: d4ff d6bf 2805 ebbd 441e 10c0 5ba4 08bd
00000010: 5ffb 1bbf 8c2c aabd a0a8 0dbc 7da3 96bf
00000020: 90b7 5dbf 8cc5 86bd 5ae2 62be 6c3c b43c
00000030: 6f46 1ac0 adca 6cbf f387 b9bf b23f babe
00000040: d10d aebd b0fc 5c3d ec1a cbbe 44a8 073e
00000050: 2981 bdbc 7660 f33c 868a 07bd 19bc 21be
00000060: 2836 67bf 2152 40bd 71d3 e8bf 9dd1 88bf
00000070: b6c6 13be 9ec5 c6bf e627 73bf f87b fdbc

functional_359_1/batch_normalization_44_1/batchnorm/mul f4 [32]
3.1456957 1.2975259 0.7665866 1.3803197 2.187594 0.71204984 0.72143227 1.0695281
0.8643786 1.2960318 0.7562915 1.0918776 0.8639587 2.124631 1.6231332 1.1941156
1.2130204 1.4931347 1.9463333 2.2722964 2.3783255 2.3474393 1.0684736 1.9266123
1.2648411 2.4573038 0.45683554 1.0528642 0.9250454 1.8480324 1.6178855 1.0283462
00000000: 1453 4940 5415 a63f 053f 443f 51ae b03f
00000010: 8a01 0c40 e648 363f c9af 383f 4ce6 883f
00000020: ea47 5d3f 5fe4 a53f 529c 413f a5c2 8b3f
00000030: 662c 5d3f f4f9 0740 d4c2 cf3f c8d8 983f
00000040: 4144 9b3f 0a1f bf3f 7321 f93f 4e6d 1140
00000050: 7c36 1840 723c 1640 bec3 883f 3b9b f63f
00000060: 50e6 a13f 7744 1d40 59e6 e93e 41c4 863f
00000070: c6cf 6c3f 538c ec3f df16 cf3f d9a0 833f

functional_359_1/batch_normalization_44_1/batchnorm/sub f4 [32]
-0.4972684 -0.23386376 -0.6610216 -0.4238297 -0.32640293 -0.21524853 -0.549868 -0.46719489
-0.48564902 -0.36399877 -0.45501208 -0.45417917 -0.40833685 -0.2884058 -0.3437088 -0.5320218
-0.28531557 -0.32564774 -0.5900207 -0.34352997 -0.49167627 -0.41004893 -0.47426626 -0.22226834
-0.6314093 -0.40585774 -0.76163554 -0.5318565 -0.44106534 -0.229781 -0.49576113 -0.3730724
00000000: f799 febe fb79 6fbe b638 29bf 3500 d9be
00000010: 491e a7be 1c6a 5cbe 26c4 0cbf 2b34 efbe
00000020: fda6 f8be 0c5e babe 58f7 e8be 2c8a e8be
00000030: 8711 d1be eda9 93be 9afa afbe 9532 08bf
00000040: e214 92be 4dbb a6be 990b 17bf 29e3 afbe
00000050: febc fbbe eff1 d1be 07d3 f2be 509a 63be
00000060: 0aa4 21bf 96cc cfbe 8cfa 42bf bf27 08bf
00000070: 51d3 e1be b64b 6bbe 67d4 fdbe 5803 bfbe

functional_359_1/conv2d_38_1/convolution f4 [32, 3, 3, 3]
-0.017774178 0.18136564 -0.097410806 -0.011520147 0.1365191 -0.0052704476 0.09391785 0.10058143
-0.0034969184 0.11266741 -0.072258696 0.1371497 0.004855166 -0.025693512 0.059531298 0.10337313
0.10856703 0.08208383 0.01816183 0.0040398426 0.1088019 0.035498563 0.18231991 0.019701054
-0.08199515 0.20951602 0.12377481 0.13033119 -0.07069972 -0.07196005 0.01525938 0.06345136
0.112859555 0.102711566 -0.08275383 -0.046971273 0.018929986 -0.084825955 0.0059251618 -0.061667334
-0.15524219 0.018624783 0.082201496 -0.036099076 -0.053304847 -0.038375154 0.0618255 -0.07282829
-0.00069059886 -0.059744377 -0.05479452 0.052898277 -0.124430306 -0.03175677 0.20459782 -0.061613437
0.031974893 0.053835038 0.092905484 0.113787286 0.06889809 0.09625881 -0.0010871866 0.14918654
0.09968142 -0.06243657 0.096995614 0.07058559 0.037842456 -0.05835534 0.053890023 -0.007131377
0.04733717 -0.12828052 0.09332172 0.17598303 -0.13319562 -0.0774548 0.1206116 0.100787275
0.048477095 0.052098088 -0.074023716 -0.14922565 -0.068853974 -0.03940387 0.021883635 -0.07149729
-0.002940687 -0.034281414 0.08390457 0.06656539 -0.1306842 0.07251084 0.13165031 -0.039770056
-0.038612854 -0.10317897 -0.10806105 -0.085836835 0.11934404 -0.10404214 0.14669432 0.16768748
0.11347412 -0.11089281 0.02547887 -0.0547479 -0.14296465 0.04779926 -0.039772794 -0.09457844
-0.12983492 -0.1381774 -0.05019308 -0.018924357 -0.026877685 0.09668433 -0.08306512 0.054606482
0.09170239 0.035305995 -0.026246386 -0.16511676 0.019111445 0.034480624 0.067699395 0.08409559
0.00030405456 0.12073681 0.16087095 0.017728943 -0.0043744533 0.09817473 0.0256354 -0.03602624
0.093711294 -0.022912402 -0.18316574 0.03058033 -0.12116713 -0.056347 -0.13433583 -0.1236657
-0.0763496 0.011258557 -0.11938359 0.10298715 -0.010395665 0.010473599 -0.003924849 -0.02283889
-0.011767151 -0.13951828 0.07493327 -0.19788444 0.107615285 -0.10023972 0.03691733 0.118963435
-0.033757783 -0.1753367 0.111124694 0.10045301 -0.069787 -0.10097327 -0.0733964 -0.03208908
0.19462661 0.09151812 0.1441866 0.10410075 0.11059762 0.07160009 -0.108699284 -0.17873687
-0.12522116 -0.0901225 0.070520595 -0.085126676 -0.035139345 0.11279255 -0.05956655 -0.10537682
-0.08813985 -0.12640059 -0.1356265 -0.03034361 -0.16484162 0.053536095 0.077673644 -0.100235686
0.032706637 0.15458754 -0.027105983 0.011137846 0.19961604 0.04381573 0.06576577 0.12233901
0.030084318 -0.12781292 0.037674416 -0.06541553 -0.077281706 0.02467855 0.038166672 0.01923797
0.21163511 -0.07913795 -0.06685802 0.0015585794 0.08811436 -0.11273022 0.19962098 0.017966261
-0.0044117225 -0.015748426 -0.14350751 0.019019745 0.08543545 -0.053284153 0.061047662 0.10971548
0.16583224 -0.016734555 -0.052706122 -0.14782302 -0.09949389 -0.025511213 0.08124349 0.10306315
0.096787065 0.11013107 0.063217424 0.13713028 0.022485891 -0.05561764 -0.08944691 -0.0897057
-0.09874054 -0.029388044 -0.075974405 -0.14997736 -0.11716705 -0.037105657 0.07409547 0.16796328
-0.07785009 0.052924678 0.08139935 0.13202155 -0.10526723 -0.19476525 -0.020542176 -0.067586586
00000000: 279b 91bc eab7 393e 517f c7bd 00bf 3cbc
00000010: aacb 0b3e b8b3 acbb 0058 c03d a3fd cd3d
00000020: 8e2c 65bb 2cbe e63d 5efc 93bd f970 0c3e
00000030: 1618 9f3b 337b d2bc 17d7 733d 4bb5 d33d
00000040: 6458 de3d 911b a83d 1ec8 943c a860 843b
00000050: 88d3 de3d f166 113d 12b2 3a3e 1b64 a13c
00000060: 13ed a7bd 5e8b 563e a67d fd3d 8a75 053e
00000070: 04cb 90bd ca5f 93bd 7b02 7a3c c9f2 813d
00000080: e922 e73d 715a d23d d77a a9bd f364 40bd
00000090: 0f13 9b3c 3bb9 adbd dc27 c23b e396 7cbd
000000a0: cff7 1ebe 0093 983c 4259 a83d a0dc 13bd
000000b0: 2f56 5abd 442f 1dbd bc3c 7d3d 0027 95bd
000000c0: 4e09 35ba 85b6 74bd 3870 60bd ddab 583d
000000d0: 51d5 febd 6313 02bd 1782 513e 5f5e 7cbd
000000e0: 1bf8 023d 2182 5c3d 3b45 be3d 4f09 e93d
000000f0: 711a 8d3d 5723 c53d ee7f 8eba 5bc4 183e
00000100: c625 cc3d 7dbd 7fbd a3a5 c63d 2e8f 903d
00000110: b100 1b3d 0206 6fbd c9bb 5c3d 53ae e9bb
00000120: 9fe4 413d f85b 03be 751f bf3d e534 343e
00000130: 6f64 08be 9fa0 9ebd 3703 f73d 8f69 ce3d
00000140: eb8f 463d ce64 553d bf99 97bd 9cce 18be
00000150: 5003 8dbd f465 21bd 4f45 b33c 2c6d 92bd
00000160: 8ab8 40bb ab6a 0cbd 29d6 ab3d 6f53 883d
00000170: 14d2 05be 9080 943d 57cf 063e ede5 22bd
00000180: 8328 1ebd 7f4f d3bd 1d4f ddbd 39cb afbd
00000190: a66a f43d 0c14 d5bd 0937 163e 44b6 2b3e
000001a0: 1f65 e83d c51b e3bd 10b9 d03c 563f 60bd
000001b0: 5365 12be 28c9 433d cce8 22bd 57b2 c1bd
000001c0: 72f3 04be 607e 0dbe 4297 4dbd 4107 9bbc
000001d0: 972e dcbc 6f02 c63d 0c1e aabd 0cab 5f3d
000001e0: 76ce bb3d 059d 103d a902 d7bc 5e14 29be
000001f0: 9b8f 9c3c 8e3b 0d3d fba5 8a3d 4f3a ac3d
00000200: 8369 9f39 dc44 f73d 5bbb 243e 4a3c 913c
00000210: 9357 8fbb d50f c93d 5501 d23c 4090 13bd
00000220: b5eb bf3d cab2 bbbc cd8f 3bbe 9a83 fa3c
00000230: 7926 f8bd 1dcc 66bd 558f 09be 7144 fdbd
00000240: 2e5d 9cbd d075 383c 627f f4bd edea d23d
00000250: 9452 2abc 7599 2b3c 059c 80bb a018 bbbc
00000260: 02cb 40bc e1dd 0ebe 9d76 993d 38a2 4abe
00000270: 6765 dc3d 7b4a cdbd a036 173d 1aa3 f33d
00000280: 9a45 0abd 778b 33be 5895 e33d 4fba cd3d
00000290: 7dec 8ebd 13cb cebd da50 96bd d76f 03bd
000002a0: 334c 473e da6d bb3d a7a5 133e c632 d53d
000002b0: 0181 e23d 11a3 923d bb9d debd cc06 37be
000002c0: fa39 00be 2592 b8bd 1a6d 903d e556 aebd
000002d0: 46ee 0fbd c8ff e63d 0efc 73bd cdcf d7bd
000002e0: aa82 b4bd 286f 01be ace1 0abe 2a93 f8bc
000002f0: 3ecc 28be aa48 5b3d 5c13 9f3d 5e48 cdbd
00000300: 65f7 053d 324c 1e3e 5e0d debc 837b 363c
00000310: 2668 4c3e 1f78 333d 34b0 863d e08c fa3d
00000320: 6373 f63c 64e1 02be 7d50 1a3d 94f8 85bd
00000330: df45 9ebd ac2a ca3c a854 1c3d f298 9d3c
00000340: e0b6 583e 1413 a2bd dcec 88bd 3f49 cc3a
00000350: 4d75 b43d 1adf e6bd 7169 4c3e fb2d 933c
00000360: 3690 90bb d802 81bc a2f3 12be 4ccf 9b3c
00000370: c8f8 ae3d 7c40 5abd 1d0d 7a3d 82b2 e03d
00000380: edcf 293e e816 89bc 60e2 57bd eb5e 17be
00000390: 74c3 cbbd e4fc d0bc fd62 a63d c612 d33d
000003a0: 4c38 c63d 668c e13d 2378 813d e16b 0c3e
000003b0: 5534 b83c 53cf 63bd f12f b7bd 9fb7 b7bd
000003c0: 7b38 cabd 32bf f0bc 7898 9bbd aa93 19be
000003d0: 47f5 efbd 1afc 17bd 5ebf 973d 91fe 2b3e
000003e0: de6f 9fbd 8cc7 583d b4b4 a63d a830 073e
000003f0: 5896 d7bd 8b70 47be 1148 a8bc d66a 8abd

functional_359_1/conv2d_38_1/Relu;functional_359_1/conv2d_38_1/BiasAdd;functional_359_1/conv2d_38_1/convolution;functional_359_1/conv2d_38_1/Squeeze f4 [32]
0.015139643 -0.04383168 0.043451138 -0.028892554 0.02588446 0.0066925786 0.017229725 0.003987139
0.009240288 0.06017454 0.018894136 0.012501087 0.14841889 0.008389606 0.101762906 0.024886163
0.050196324 -0.072155 -0.005435663 -0.02779423 0.039238915 0.042027745 0.041806836 -0.055464018
0.025884721 -0.0021399797 0.085470416 0.038319267 0.03723339 0.03269012 0.021936167 -0.007112743
00000000: 440c 783c d988 33bd d2f9 313d 14b0 ecbc
00000010: a60b d43c 6b4d db3b 5a25 8d3c 8ca6 823b
00000020: 9464 173c 9479 763d e0c7 9a3c 5cd1 4c3c
00000030: 1ffb 173e 8f74 093c 1269 d03d 11de cb3c
00000040: a99a 4d3d 00c6 93bd a51d b2bb bab0 e3bc
00000050: fcb8 203d 4925 2c3d a53d 2b3d 3d2e 63bd
00000060: 320c d43c e73e 0cbb 1d0b af3d aaf4 1c3d
00000070: 0a82 183d 13e6 053d 7ab3 b33c 0312 e9bb
