app/src/main/assets/model_resnet.tflite (tflite, 410484 bytes, 14 tensors)

arith.constant f4 [64]
0	0xbc91f392	-0.017816339
1	0xbda9c27c	-0.08289048
2	0xbdbe9bd5	-0.09307066
3	0x3d8c0fdf	0.06838965
4	0xbd8b3554	-0.06797281
5	0xbcc3d045	-0.023903022
6	0xbdf9b532	-0.121927634
7	0xbe03c982	-0.12869838
8	0xbdb539bf	-0.08848905
9	0xbddc3e79	-0.10754103
10	0x3ca6aef2	0.020347092
11	0xbc13e2ee	-0.009026272
12	0xbd9ea2d4	-0.07745901
13	0xbe56965d	-0.20955797
14	0x3d26adea	0.0406932
15	0x3e011e45	0.12609203
16	0xbd76954f	-0.060200986
17	0xbe211b85	-0.15733154
18	0x3e09bc7c	0.13450807
19	0x3ddfaa0c	0.10921106
20	0x3da252a9	0.079259224
21	0xbde15fe5	-0.110046186
22	0x3e07f28f	0.13276123
23	0x3d94ea33	0.072712325
24	0x3c246590	0.01003398
25	0xbd909a7a	-0.07060714
26	0xbdc5dae7	-0.09660893
27	0x3dd10fe8	0.10208112
28	0x3dbf9da8	0.093562424
29	0xbdd6ce4e	-0.10488568
30	0x3e5f24c5	0.2179137
31	0x3bac66f4	0.0052612964
32	0xbde613ad	-0.112342216
33	0xbdb29e64	-0.08721617
34	0x3dc1bdba	0.094600156
35	0x3cf57b5f	0.029966054
36	0xbdc3b50b	-0.095560156
37	0x3e044e8c	0.12920588
38	0x3cf43054	0.0298082
39	0x3e0a3ff7	0.13500963
40	0x3d1ceb3d	0.03831028
41	0xbd16331b	-0.03666983
42	0xbd6593cf	-0.056049164
43	0x3e1cfbb6	0.15330395
44	0xbdb63da3	-0.08898475
45	0xbbb541c4	-0.0055315215
46	0xbdfedf2f	-0.12444913
47	0x3e05d8a8	0.13070929
48	0xbe041b91	-0.12901141
49	0xbdfa5b15	-0.12224404
50	0x3970f880	0.00022980757
51	0x3d3559c9	0.04427508
52	0xbe0dde39	-0.13854302
53	0x3bf2261c	0.007389797
54	0x3dc3df95	0.09564129
55	0xbddbce2d	-0.10732684
56	0x3df4dee5	0.11956576
57	0x3e32c103	0.1745644
58	0xbe084623	-0.13308005
59	0x3cb9ac26	0.022665095
60	0xbd87745a	-0.06613989
61	0xbdbe3145	-0.09286741
62	0xbdf6b778	-0.12046713
63	0x3c366031	0.011131332

arith.constant1 f4 [64]
0	0xbd8a17ea	-0.067428425
1	0x3c4487eb	0.011995296
2	0xbd0025e5	-0.03128614
3	0xbcb5a293	-0.022172248
4	0xbcb60b47	-0.022222174
5	0xbc9d734c	-0.019220017
6	0xbc3aaf66	-0.011394357
7	0x3caef4c8	0.021356955
8	0xbc8354cf	-0.01603165
9	0xbbeb6caf	-0.007184587
10	0xbc780675	-0.015138258
11	0x3c1ba408	0.009499557
12	0xbd8c7f91	-0.06860269
13	0xbd28375a	-0.041068412
14	0xbd25eaa5	-0.040506978
15	0xbc53e4e9	-0.012932994
16	0x3cc3ff09	0.023925321
17	0xbcbb9372	-0.022897456
18	0xbab33f99	-0.001367557
19	0x3d518f8c	0.051162288
20	0xbc89133c	-0.016732804
21	0x3cd528c7	0.02602042
22	0xbd18fd3b	-0.037350874
23	0xbcd54c31	-0.026037307
24	0xbd403a1e	-0.046930425
25	0xbd381418	-0.044941038
26	0xbdad007f	-0.0844736
27	0xbc36768e	-0.011136664
28	0x3a9bebba	0.0011895814
29	0xbd22fc99	-0.039791677
30	0xbce4bdd2	-0.027922545
31	0xbd3c98d5	-0.04604419
32	0x3c1bc1f4	0.009506691
33	0xbb786336	-0.0037900931
34	0xbc8f7d6c	-0.01751586
35	0x3c57359c	0.01313534
36	0xbcb85cee	-0.02250525
37	0xbd19b15b	-0.037522655
38	0xbd27e606	-0.04099085
39	0xbcd29325	-0.02570493
40	0x3c9be016	0.019027751
41	0xbbccd348	-0.0062507726
42	0x3cc5574c	0.024089478
43	0xbcdec91c	-0.027195506
44	0x3ca81954	0.02051989
45	0x3d0957b9	0.033530924
46	0x3ca1dfcd	0.019760037
47	0xbb28928b	-0.0025722112
48	0xbb7d348c	-0.0038636057
49	0xbc0d00e0	-0.008606166
50	0xbc9565d9	-0.018237041
51	0xbc4a72af	-0.012356444
52	0x3cad3c36	0.021146875
53	0x3c7a61dd	0.0152821215
54	0xbd65fa63	-0.05614699
55	0x3bb86ebc	0.005628435
56	0x39c8750b	0.00038234176
57	0x3d2bc98b	0.041940253
58	0x3c20191c	0.009771612
59	0xbd65dc4a	-0.056118287
60	0x3c10836f	0.008820399
61	0xb8a959b3	-8.075256e-05
62	0xbbe578ea	-0.0070029395
63	0xbd913e82	-0.070920005

arith.constant2 f4 [64, 3, 3, 64]
0	0x3ccece47	0.025244845
1	0xbd2b10c1	-0.041764025
2	0xbbb1e428	-0.0054288097
3	0xbc6a1286	-0.014286643
4	0xbccacda3	-0.024756258
5	0x3c0691cc	0.008213472
6	0xbb4b5f6f	-0.0031032225
7	0x3c676b2f	0.014124676
8	0xbcfd4f2d	-0.030921543
9	0x3a4b34b5	0.00077516894
10	0x3cb85326	0.022500586
11	0x3d20e226	0.039278172
12	0x3c9e6b5d	0.019338304
13	0x3d071716	0.032981
14	0xbc92e430	-0.017931074
15	0x3c9b8cfa	0.018988121
16	0xbd054d5c	-0.03254448
17	0xbbab8bbb	-0.005235163
18	0x3b5e0e8c	0.0033883182
19	0xbbac51d4	-0.005258778
20	0x3c1fce7b	0.009753819
21	0xbc8ada77	-0.016949875
22	0x3cbb7a32	0.022885416
23	0xbd2ccab2	-0.042185493
24	0xbc9ff257	-0.019524736
25	0x3c93e137	0.018051727
26	0xbc8509f1	-0.016240092
27	0xbc79f811	-0.015256898
28	0x3d0c9d02	0.03432942
29	0x3b957fea	0.0045623677
30	0xbc97060d	-0.018435502
31	0x3c847be6	0.01617236
32	0xbc414156	-0.011795362
33	0x3d123523	0.035695206
34	0xbc12ed5f	-0.0089677265
35	0xbca1d338	-0.019754037
36	0xbbab2b05	-0.005223634
37	0x3ca89e81	0.020583393
38	0x3d125e33	0.035734367
39	0x3a497d76	0.00076862366
40	0x3cd8093a	0.026371587
41	0xbaa115ff	-0.001228988
42	0x39d56ba1	0.00040706716
43	0x3ccd6b19	0.025075482
44	0x3d021597	0.03175887
45	0xbcd8eb7f	-0.02647948
46	0xbb9872b8	-0.0046523474
47	0xbbf8a2b2	-0.007587754
48	0xbd1b7c5a	-0.037960388
49	0x3d398bd4	0.045299366
50	0xbd203832	-0.039116092
51	0xbca27897	-0.019832892
52	0xbc8e7f67	-0.017394735
53	0x3ceb9e4b	0.028762003
54	0x398b2230	0.00026537618
55	0xbb8c4945	-0.0042811953
56	0x3ba35740	0.0049847662
57	0x3c1da561	0.009621949
58	0xbd15b809	-0.036552463
59	0xbd05aa96	-0.032633387
60	0x3c73c13e	0.0148776155
61	0xbba5e38e	-0.005062527
62	0x3caff3cf	0.021478562
63	0x3c71b968	0.014753677
64	0xbc699248	-0.014256068
65	0xbcef6ee3	-0.02922768
66	0x3b5a3021	0.0033292847
67	0xbc895200	-0.016762733
68	0xbb23150f	-0.0024884378
69	0xbc9827e1	-0.018573703
70	0xbcb5db8c	-0.022199415
71	0x3ca45cc9	0.020063775
72	0x3b7b354f	0.0038331335
73	0x3d1b0aab	0.03785197
74	0x3b2a49b9	0.0025983884
75	0x3c649ae8	0.013952948
76	0x3cd1b68f	0.025599746
77	0xbc96de25	-0.018416474
78	0xbca6dab4	-0.020367958
79	0x3cbfec93	0.023428237
80	0xbcdcc146	-0.026947629
81	0xbc2785b5	-0.010224749
82	0xbd0de6c6	-0.03464391
83	0x3d09c629	0.033636246
84	0xbc082617	-0.008309863
85	0x3a8fc855	0.0010969738
86	0xbcbbe2d5	-0.02293531
87	0x3c06a4ed	0.008218032
88	0x3bfe47ef	0.00776004
89	0x3c3ef7d5	0.011655767
90	0xbc54434d	-0.012955499
91	0x3c1619d1	0.009161429
92	0xbc9a02a3	-0.018800085
93	0xbd31d6f6	-0.043417893
94	0xbb7bd6f5	-0.0038427685
95	0x3c93f622	0.018061701
96	0x3ba8fb75	0.005156929
97	0xbccf5e7c	-0.025313608
98	0x3c8296d3	0.01594106
99	0xbd312eb8	-0.043257445
100	0x3c213006	0.00983811
101	0xbbfce52a	-0.007717748
102	0xbd1176bb	-0.03551362
103	0x3d2dd7d6	0.042442165
104	0x3a216d7a	0.0006157976
105	0x3d09c525	0.033635277
106	0x3d16fd5e	0.036862724
107	0xbc25e8ba	-0.010126287
108	0x3c1135c6	0.008862918
109	0xbbbdcaf2	-0.005792015
110	0xbbb6359a	-0.005560589
111	0x3bb5645d	0.005535646
112	0x3c4ef365	0.012631272
113	0xbc402673	-0.011727917
114	0xbd22b2af	-0.039721187
115	0xbcfae079	-0.030624615
116	0x3b58fc08	0.0033109207
117	0xbcac62af	-0.02104315
118	0xbd1d1250	-0.038347542
119	0xb94e5fa7	-0.00019681324
120	0x3c850b51	0.016240748
121	0x3cacae74	0.02107928
122	0xbbc9d15a	-0.00615899
123	0x3a841969	0.0010078374
124	0xbc779c46	-0.015112942
125	0xbbf28d58	-0.0074021034
126	0xb9dec6a0	-0.00042491127
127	0x3cedbfce	0.029022124
128	0x3ccd70ba	0.025078166
129	0x3c6a004a	0.0142822955
130	0x3c9650fa	0.01834916
131	0x381922f8	3.651061e-05
132	0xbcce0501	-0.02514887
133	0xbc666ef1	-0.014064536
134	0x3cfa266f	0.030535905
135	0xbcf56391	-0.029954704
136	0xbd1b8eaf	-0.03797787
137	0x3c96bb19	0.018399762
138	0xbcbe91ca	-0.023262877
139	0xbca0d884	-0.019634493
140	0x3bdab191	0.0066739996
141	0xbc9481dc	-0.018128328
142	0xbd2402cb	-0.040041726
143	0xbb4a1150	-0.0030833073
144	0xbcd545c1	-0.026034238
145	0x3ca33266	0.019921493
146	0xbc454751	-0.012040929
147	0xbbd5920a	-0.0065176534
148	0xbc9cd2d9	-0.019143509
149	0xbcfc9db4	-0.030836917
150	0x3c94318d	0.018090034
151	0xbb21c607	-0.0024684684
152	0xbc842e6a	-0.016135413
153	0x3cab6d59	0.020926164
154	0xbd083d98	-0.033261865
155	0xbc57d5d6	-0.013173541
156	0xbc92b8b4	-0.017910339
157	0x3cb4d805	0.022075662
158	0x3c56bde1	0.013106794
159	0x3c7dcb49	0.0154903615
160	0x3b6bc43c	0.003597512
161	0xbc918f90	-0.017768651
162	0x3cbe3e30	0.023223013
163	0xbd05b09d	-0.032639135
164	0x3cdf4800	0.027256012
165	0xbd06df10	-0.032927573
166	0x3c38221c	0.011238601
167	0xbcf7f8de	-0.030270036
168	0x3ca4888e	0.020084646
169	0xbcb0eaaa	-0.021596272
170	0x3caa84b8	0.020815238
171	0xbc881dfe	-0.016615864
172	0x3c08004f	0.008300855
173	0x3cefbc2a	0.029264528
174	0x3d082caf	0.03324574
175	0x3c837596	0.01604728
176	0xbbc8f53c	-0.00613275
177	0x3b565fa5	0.0032710817
178	0xba505369	-0.00079469994
179	0x3cf0efe0	0.029411256
180	0xbb6c63e7	-0.0036070289
181	0xbc660635	-0.014039566
182	0xbd02cff2	-0.031936593
183	0xbd1c261d	-0.038122285
184	0x3c0bc7ef	0.008531555
185	0xbc751776	-0.014959207
186	0x3c203b11	0.0097797075
187	0x3cbc17f3	0.022960639
188	0x3cbb5291	0.02286652
189	0x3c0176cf	0.007901861
190	0x3c9d4595	0.019198218
191	0x3b0ea343	0.0021764792
192	0x3c74ca38	0.014940791
193	0xbd1acca4	-0.037792817
194	0x3d3f7409	0.04674152
195	0x3beb48f0	0.0071803257
196	0xbd210d0d	-0.039319087
197	0x3ce78907	0.028263582
198	0x3cec1a69	0.028821187
199	0xbc69c36a	-0.014267782
200	0xbd22ba44	-0.039728418
201	0x3ca857e6	0.020549726
202	0x3cbed9d5	0.02329723
203	0x3ced3ad5	0.028958717
204	0x3d0885f0	0.033330858
205	0xbc81d220	-0.015847266
206	0xbd192d69	-0.037396822
207	0x3d47a627	0.04874244
208	0xbd103a05	-0.03521158
209	0xbca2b603	-0.01986218
210	0x3c45b82f	0.012067839
211	0xbd135158	-0.035966247
212	0x3c104bfc	0.008807179
213	0xbd2e1be6	-0.042507075
214	0xbcde2061	-0.027115049
215	0xbd22cfc5	-0.039748926
216	0xbc3a2a87	-0.011362678
217	0xbc98a5f3	-0.018633818
218	0xbd27fcb3	-0.041012477
219	0xbcd6dcce	-0.026228335
220	0x3d060f06	0.03272917
221	0xbcbc764b	-0.023005625
222	0x3bad15e7	0.005282152
223	0xbcfe777c	-0.031062834
224	0x3c5f4aeb	0.013628702
225	0xbc1dd95f	-0.009634345
226	0x3c953e93	0.018218314
227	0xbd150a02	-0.036386497
228	0xbd167564	-0.036733046
229	0xbb8c96e7	-0.00429045
230	0x3c95b2d8	0.018273756
231	0x3d3ae6ba	0.045630194
232	0x3baa62b2	0.0051997537
233	0x3ce11c7f	0.027479408
234	0x3cd91892	0.026500974
235	0xbc0a0720	-0.00842455
236	0xbc5f55eb	-0.013631324
237	0xbb01c4ef	-0.001980122
238	0x3c2a31f7	0.010387889
239	0x3c0a9916	0.00845935
240	0x3ccefc5c	0.025266819
241	0x3cbe956a	0.023264606
242	0xbccd5f2f	-0.025069801
243	0x3cf9ec5a	0.030508209
244	0x3cccc79f	0.02499753
245	0xbc4dca4c	-0.012560438
246	0xbcb6bd9e	-0.022307213
247	0x3cddce5d	0.02707594
248	0x3c8a5677	0.016886933
249	0x3ca92707	0.020648493
250	0x3c6e0e25	0.0145297395
251	0x3cc60e33	0.024176693
252	0xbd287721	-0.041129235
253	0xbc63b214	-0.013897438
254	0xbca19cf6	-0.019728165
255	0x3cdeae57	0.027182741

arith.constant3 f4 [64, 3, 3, 64]
0	0x3e1730fd	0.14764781
1	0xbd933d02	-0.07189371
2	0x3d3428f1	0.043984357
3	0xbd313326	-0.04326167
4	0x3db21486	0.08695321
5	0xbca0f8de	-0.01964992
6	0x3c8ce580	0.017199278
7	0x3c3dca4e	0.011583878
8	0xbd06cc50	-0.03290969
9	0x3d9cca3e	0.07655762
10	0x3c22029d	0.009888318
11	0xbd40f534	-0.047108844
12	0x3c1f37be	0.00971788
13	0xbd3e5d40	-0.04647565
14	0xbd6e615b	-0.058198314
15	0x3bf6c3fd	0.007530688
16	0xbbe6c918	-0.007043015
17	0xbbee6dd4	-0.007276276
18	0x3bd84be6	0.0066008447
19	0xbd67161d	-0.056417573
20	0xbd451130	-0.048112094
21	0x3d1543dc	0.03644167
22	0x3dcbffe5	0.099609174
23	0x3d975833	0.073898695
24	0x3d8c2015	0.06842057
25	0x3c5a3cf5	0.013320197
26	0x3bb2105f	0.0054340805
27	0xbbcba587	-0.0062148008
28	0xbc12ac4b	-0.008952211
29	0x3b470b21	0.0030371624
30	0x3dd7d0d7	0.1053788
31	0x3d6f77db	0.058463912
32	0x3dae1459	0.08499975
33	0x3d3907b1	0.04517335
34	0x3d8e2f3f	0.06942605
35	0x3d874a7f	0.06606006
36	0x3c9ff375	0.019525269
37	0x3d6e5a28	0.05819145
38	0x3d0128ce	0.031533055
39	0x3ca33aec	0.019925557
40	0xbcd755e9	-0.026286082
41	0xbae2e365	-0.00173102
42	0xbc839bc5	-0.016065488
43	0xbd4e59bc	-0.050378546
44	0xbbe935e9	-0.0071170223
45	0x3da4e660	0.08051753
46	0xbb0d5b92	-0.0021569473
47	0x3d95e4ae	0.07319008
48	0x3dd3f6c5	0.10349802
49	0xbc859e76	-0.016310912
50	0x3d57d190	0.05269009
51	0xbc0f9f8f	-0.008766069
52	0x3d3d444a	0.046207704
53	0xbb853152	-0.0040647173
54	0x3d90f523	0.07078006
55	0x3ca5e0fc	0.020248882
56	0xbd4a9e7b	-0.049467545
57	0xbbfc2dc1	-0.007695884
58	0x3d0235bb	0.031789523
59	0x3d303438	0.04301855
60	0x3c927a3d	0.017880553
61	0xbd12cf0e	-0.035841994
62	0x3d2800eb	0.0410165
63	0x3caf8797	0.021426959
64	0x3c001c68	0.007819273
65	0xbdec1268	-0.11526948
66	0x3d0108f1	0.031502668
67	0x3d20a5c1	0.039220575
68	0xbd10bef9	-0.035338376
69	0xbd00cec5	-0.03144719
70	0xbd8577bb	-0.065169774
71	0xbd061826	-0.032737873
72	0x3d1af374	0.03782983
73	0x3d30fc3d	0.043209303
74	0x3d40ca5a	0.047067977
75	0x3d5fec01	0.05466843
76	0x3d81e936	0.063433096
77	0x3d518c32	0.05115909
78	0x3d26a7c8	0.040687352
79	0x3ccd6701	0.02507353
80	0x3c03fd98	0.008056067
81	0x3d09c85b	0.03363834
82	0x3d4ef6bd	0.050528277
83	0xbcdd7be7	-0.02703662
84	0x3d48736e	0.048938207
85	0x3da54cae	0.08071266
86	0x3ba932ad	0.0051635117
87	0x3dcf8356	0.10132472
88	0x3e0991a6	0.13434467
89	0x3da3e2e0	0.08002257
90	0x3dc1d616	0.09464662
91	0x3d3992f2	0.045306154
92	0x3d6db2c4	0.058031812
93	0xbcabc89f	-0.020969687
94	0x3d52dc7c	0.0514798
95	0xb9a3f05d	-0.00031268867
96	0x3d574a13	0.052560877
97	0x3ddae112	0.1068746
98	0xbce3dd08	-0.027815357
99	0xbd67d6a5	-0.056601185
100	0x3d2fca08	0.04291728
101	0xbcd2271c	-0.025653414
102	0x3bb80656	0.0056159897
103	0xbd5bbe9c	-0.053648576
104	0xbd1b52c5	-0.037920732
105	0x3dc6f42f	0.09714543
106	0xbd64f62c	-0.05589883
107	0xbd2fc332	-0.042910762
108	0x3c711b80	0.014716029
109	0x3d3fca8c	0.046824023
110	0x3dccb3d3	0.09995236
111	0x3c61c799	0.013780498
112	0x3db3da29	0.08781845
113	0xbd6ad6ac	-0.057333633
114	0xbca41fce	-0.020034697
115	0xbca4c5ee	-0.020113911
116	0xbd636fe7	-0.05552664
117	0xbcb4d809	-0.02207567
118	0xbc2d4750	-0.010576084
119	0x3cf24343	0.029573089
120	0xbd65c583	-0.056096565
121	0xbb0e968a	-0.0021757209
122	0x3da66baa	0.08126004
123	0x3d88979f	0.066695444
124	0xbd890d3c	-0.066919774
125	0xbce75a01	-0.02824116
126	0x3bd52179	0.0065042344
127	0x3d410f77	0.04713389
128	0x3c2eed3f	0.010676681
129	0xbdb48b2a	-0.08815606
130	0x3d49840c	0.049198195
131	0xbb21950f	-0.0024655496
132	0x3dabde91	0.083920605
133	0x3cacfe13	0.021117246
134	0xbc332f2a	-0.010936538
135	0x3cbd043f	0.023073314
136	0xbb560421	-0.003265627
137	0xbbc299f2	-0.005938762
138	0x3d8fdeee	0.07024942
139	0xbd2e7e0c	-0.042600676
140	0xbc6b316b	-0.014355044
141	0xbbeff3c7	-0.0073227617
142	0xbc9c1bef	-0.019056289
143	0xbd46167c	-0.048361287
144	0x3d1e9844	0.03871943
145	0xbdb08a56	-0.086201355
146	0x3d4fdad3	0.050745796
147	0xbb9ba016	-0.0047493083
148	0x3d0c568c	0.034262225
149	0xbb8d65e0	-0.004315123
150	0x3d9bfe94	0.07616916
151	0x3d3c3030	0.045944393
152	0x3e278216	0.16358218
153	0x3c952ee1	0.01821083
154	0x3d0bcb8f	0.034129675
155	0x3d10e3ba	0.035373427
156	0x3c493f36	0.012283137
157	0xbd09d904	-0.033654228
158	0x3d5e0fb9	0.054214213
159	0x3cd58ff0	0.026069611
160	0xbd161044	-0.036636606
161	0x3d0a2f7b	0.033736687
162	0x3dc05aa9	0.09392292
163	0xbd31bb30	-0.043391407
164	0xbd422a02	-0.047403343
165	0xbd3f4e40	-0.046705484
166	0xbc4be5cc	-0.012444925
167	0xbcb0ed7f	-0.021597622
168	0x3d144c49	0.036205564
169	0x3d07a08c	0.033112094
170	0xbd2ba734	-0.041907504
171	0xbd7793d8	-0.06044373
172	0xbd5d0fab	-0.05397002
173	0x3dd23cfc	0.10265538
174	0x3d01fb8b	0.03173403
175	0x3d3aa7e9	0.045570288
176	0x3de918b0	0.11381662
177	0x3d59fd7f	0.05322027
178	0xbcd9f435	-0.026605705
179	0x3d40324e	0.046922974
180	0x3dac6484	0.08417609
181	0x3d074c9e	0.033032052
182	0x3d30da30	0.04317683
183	0x3b9a4a36	0.0047085537
184	0x3cc7fac5	0.024411568
185	0xbd4becfd	-0.049786557
186	0x3d754835	0.059883315
187	0xbc5dc857	-0.013536534
188	0xbc072c11	-0.008250252
189	0xbb4a095f	-0.003082834
190	0xbd694284	-0.0569482
191	0xbcf705a1	-0.030154051
192	0x3c124852	0.008928375
193	0xbd836e86	-0.06417565
194	0x3d86fbed	0.0659102
195	0x3d284fec	0.041091844
196	0x3d4c5a74	0.04989095
197	0x3d3cdb94	0.046107844
198	0x3c182380	0.009285808
199	0x3d3ec673	0.046575975
200	0xbca2085d	-0.019779379
201	0xbd6af580	-0.057363033
202	0x3d01a907	0.031655338
203	0xbd3ec3cf	-0.046573456
204	0x3c223b4b	0.009901832
205	0x3d75829a	0.059939004
206	0xbd27924b	-0.040911
207	0xbbc7df58	-0.0060996227
208	0xbd5c387b	-0.0537648
209	0xbd6621ff	-0.056184765
210	0x3c2bd364	0.010487411
211	0x3c650a19	0.013979458
212	0x3c1fd830	0.009756133
213	0x3d921305	0.07132534
214	0x3d2591cf	0.040422257
215	0x3e1f742d	0.15571661
216	0x3dd4cd8d	0.10390768
217	0xbcfe2238	-0.031022176
218	0x3ccea8fd	0.025227064
219	0x3d3b9301	0.04579449
220	0x3c4e0d74	0.01257645
221	0x3d8c83b1	0.06861056
222	0x3caf05f8	0.02136515
223	0xbd416839	-0.047218535
224	0xbd2933c8	-0.041309148
225	0x3e15a697	0.1461433
226	0xbcc65724	-0.024211474
227	0x3d4f4e8f	0.05061203
228	0x3d2adf9f	0.041717168
229	0xbd877530	-0.066141486
230	0xbc0e1b4d	-0.008673501
231	0xbd1745e6	-0.036931895
232	0xbd0cec43	-0.034405004
233	0x3d57bf3f	0.05267262
234	0x3d271b41	0.040797476
235	0xbb194cce	-0.0023391726
236	0x3aa07afb	0.0012243682
237	0xbc08de93	-0.008353847
238	0x3df07fd7	0.117431335
239	0x3d0a5bef	0.03377908
240	0x3e2170ab	0.15765636
241	0x3d8db167	0.069186024
242	0x3c29c8b4	0.010362793
243	0x3c78d4b1	0.015187428
244	0x3d0d6d14	0.034527853
245	0x3cb3a7a6	0.021930527
246	0xbcd8af25	-0.026450703
247	0x3c8d0481	0.017214062
248	0xbc81c87e	-0.015842672
249	0x3c424c8e	0.011859072
250	0x3d1817e2	0.03713215
251	0x3c34ed9c	0.011042979
252	0x3d8e05a7	0.06934672
253	0xbc4f49fe	-0.012651918
254	0x3cafb6cd	0.02144947
255	0x3cdd417b	0.027008763

arith.constant4 f4 [4, 256]
0	0x3dc9297d	0.098223664
1	0x3e01ffd0	0.12695241
2	0xbc086602	-0.008325102
3	0xbe15f078	-0.14642513
4	0x3e0b3b4b	0.13596837
5	0xb9541a10	-0.00020227605
6	0x3cce529a	0.025185872
7	0x3def8496	0.11695211
8	0x3dc3f892	0.095688954
9	0xbd18c38d	-0.037295867
10	0xbd36724a	-0.04454259
11	0x3d1115bd	0.035421122
12	0x3e024796	0.1272262
13	0xbd6e6381	-0.058200363
14	0x3e039b37	0.12852179
15	0x3dc86e8b	0.097867094
16	0x3e0325f7	0.12807451
17	0xbd9e2dc7	-0.07723575
18	0x3cda7648	0.026667729
19	0x3dfe4964	0.12416342
20	0xbd6c9957	-0.057763424
21	0x3df23c56	0.118279144
22	0x3c9cbc5f	0.019132791
23	0x3d7f47fa	0.0623245
24	0xbd98f335	-0.07468263
25	0x3decb3ba	0.115577176
26	0xbc305cb0	-0.010764286
27	0xbe1940dd	-0.1496615
28	0x3dfd1a0b	0.12358483
29	0xbdba5472	-0.09098138
30	0xbe46bc37	-0.19407736
31	0x3d6bf4fb	0.05760668
32	0x3e0c2c7e	0.13688847
33	0xbc474400	-0.012162209
34	0xbe153183	-0.14569668
35	0x3c461020	0.012088805
36	0x3da74982	0.081683174
37	0xbdc517d3	-0.09623685
38	0xbcfe3b2b	-0.031034073
39	0xbe09cec7	-0.13457786
40	0xbddf5461	-0.10904766
41	0xba3a7a57	-0.0007113567
42	0x3dada5e8	0.0847891
43	0x3e0e6efa	0.13909522
44	0xbcd4c370	-0.025972098
45	0xbd8a6059	-0.06756658
46	0x3d40acef	0.047039922
47	0xbb42a789	-0.002970191
48	0x3dadbc3e	0.0848317
49	0xbdcceeb4	-0.100064665
50	0x3de4fd78	0.11181158
51	0xbe173e7e	-0.14769933
52	0xbc930468	-0.017946437
53	0x3dfce830	0.12348974
54	0x3dbc9b57	0.09209316
55	0x3d7d01a7	0.061769154
56	0xbdef69e1	-0.11690117
57	0xbbed6198	-0.0072443
58	0x3c4212f1	0.011845336
59	0x3d531f17	0.05154332
60	0x3d235ea0	0.039885163
61	0x3d515e58	0.051115364
62	0x3daeb3fb	0.08530422
63	0xbd1644a3	-0.03668655
64	0xbdf6e3b3	-0.12055149
65	0xbe06e5a6	-0.13173541
66	0x3db5c28c	0.088749975
67	0xbbd368b1	-0.006451689
68	0xbdadbb15	-0.08482949
69	0xbde9ce14	-0.114162594
70	0xbd548555	-0.051884968
71	0xbc848971	-0.016178818
72	0xbe0a5f5c	-0.13512939
73	0x3e0a90c8	0.13531792
74	0x3dab3630	0.08359945
75	0xbde8e330	-0.113714576
76	0xbd6d933c	-0.05800174
77	0x3de1f224	0.11032513
78	0x3da2707c	0.07931611
79	0x3d265068	0.040604025
80	0x3e0310b9	0.12799348
81	0x3ddd071c	0.10792372
82	0x3dd69575	0.104777254
83	0x3d39f5ce	0.045400433
84	0xbdddb37b	-0.10825249
85	0x3df32fe2	0.11874367
86	0x3d898fc7	0.067168765
87	0x3c2a302c	0.010387462
88	0x3d21d25a	0.039507248
89	0xbc3a8bcb	-0.011385868
90	0xbdddc391	-0.10828317
91	0xbd006ba2	-0.031352647
92	0xbe02e611	-0.12783076
93	0x3e2e8d43	0.17046075
94	0xbdde3283	-0.10849478
95	0xbde73d6b	-0.112910114
96	0x3d4a820f	0.04944044
97	0x3dc2e80e	0.09516917
98	0xbdd0fd79	-0.10204596
99	0xbb030479	-0.001999168
100	0xbd275ede	-0.040861957
101	0x3dff1dec	0.12456879
102	0xbdbccbed	-0.09218583
103	0xbe175b08	-0.1478082
104	0x3d68152f	0.056660827
105	0xbdde7d87	-0.10863786
106	0x3db301e1	0.08740593
107	0x3cf06170	0.029343337
108	0x3c36fd30	0.011168763
109	0x3da0ecf3	0.078576945
110	0xbd1ae95d	-0.03782021
111	0x3dd30488	0.10303599
112	0x3e1e0e5f	0.1543517
113	0x3c8057bb	0.015666833
114	0xbd3c6738	-0.045996875
115	0xbb42397c	-0.0029636314
116	0x3dfe621a	0.12421055
117	0xbd9815da	-0.07426043
118	0xbdbcd9e6	-0.09221248
119	0x3dc22876	0.094803736
120	0x3c9c2b1d	0.019063527
121	0x3dce8bc8	0.10085255
122	0x3e0c6063	0.13708644
123	0x3ce23add	0.027615959
124	0x3b27a97c	0.0025583198
125	0x3dd193d7	0.10233276
126	0xbb85cb91	-0.004083105
127	0xbd64a688	-0.05582288
128	0x3dc351b7	0.0953707
129	0x3df33763	0.118757986
130	0x3e09f0fc	0.13470834
131	0x3c0b1fbb	0.008491452
132	0xbacc89f9	-0.0015605084
133	0xbe0d3e4e	-0.13793299
134	0xbd84750d	-0.06467638
135	0x3d9525b7	0.07282584
136	0x3e14d701	0.14535142
137	0xbd1e96cf	-0.03871804
138	0x3c6bc389	0.014389881
139	0xbe005655	-0.12532933
140	0x3da29c2e	0.07939945
141	0xbca6f75d	-0.020381624
142	0x3caf7973	0.021420216
143	0xbdd715e9	-0.10502226
144	0xbe40fa22	-0.18845418
145	0xbe05bba2	-0.13059857
146	0xbe2bcce7	-0.16777383
147	0x3d4510ae	0.04811161
148	0x3dcf0c3b	0.10109755
149	0x3dc49874	0.095993906
150	0x3d02c397	0.03192481
151	0xbe0cbec7	-0.13744651
152	0x3d2de4cc	0.042454526
153	0xbca46e7e	-0.020072218
154	0xbde97606	-0.11399464
155	0xbe1ad6ab	-0.15120952
156	0xbddd3382	-0.1080084
157	0x3e028cd2	0.12749031
158	0xbda494e0	-0.08036208
159	0x3d23bf67	0.039977457
160	0xbdaa0aed	-0.08302865
161	0xbd4167d1	-0.047218148
162	0xbd8868f3	-0.066606425
163	0x3bfee86d	0.007779172
164	0x3dbae0a2	0.091248766
165	0xbe22dfff	-0.1590576
166	0xbd821476	-0.06351559
167	0x3d91c66e	0.071179256
168	0x3dc343b6	0.09534399
169	0x3d8a8aba	0.06764741
170	0x3de8beaf	0.11364495
171	0x3d192d00	0.03739643
172	0xbd05f8a9	-0.032707844
173	0xbdc78b67	-0.09743386
174	0xbe034b4a	-0.12821689
175	0xbda329df	-0.07966971
176	0xbdd4ca0c	-0.103901
177	0x3d95aa56	0.073078796
178	0x3def28ae	0.11677681
179	0xbcd9a3a6	-0.026567291
180	0xbd9ab3a8	-0.07553798
181	0xbd5618a2	-0.052269585
182	0xbd14732d	-0.036242653
183	0xbe1ee4f3	-0.15517025
184	0x3df0ed79	0.11764044
185	0x3cc0b0aa	0.02352174
186	0x3d6b80f7	0.057496037
187	0x3d0a8da5	0.03382649
188	0xbd300adf	-0.042979117
189	0x3dcea558	0.100901306
190	0xbd23ed56	-0.040021263
191	0x3e012914	0.12613326
192	0x3e096cca	0.13420406
193	0xbb8e7da7	-0.004348475
194	0xbd9648b3	-0.07338085
195	0x3d406028	0.0469667
196	0x3e3ac31d	0.18238492
197	0x3e34b77b	0.17648117
198	0x3d94085f	0.07228159
199	0xbe2c3277	-0.16816126
200	0xbc4b0194	-0.012390513
201	0xbd0dd1de	-0.034623973
202	0x3ce9447e	0.028475042
203	0x3de751a2	0.11294867
204	0x3cb3308e	0.021873739
205	0x3da11b1b	0.07866498
206	0x3de7e63b	0.1132321
207	0xbd8b142c	-0.06790957
208	0xbd80e8cc	-0.062944025
209	0x3cc83696	0.024440091
210	0xbdc672ad	-0.096898414
211	0xbdb087f1	-0.08619679
212	0x3db57c32	0.08861579
213	0x3c9a0bfe	0.018804546
214	0x3d8dc28e	0.06921874
215	0x3ddf80b8	0.10913223
216	0xbe11fc3a	-0.14256373
217	0x3b995407	0.0046792063
218	0x3e1ad87f	0.15121649
219	0xbe33695c	-0.1752066
220	0x3d240c66	0.040050887
221	0xbd4c7b5a	-0.049922325
222	0xbdae9f06	-0.08526425
223	0x3df25696	0.11832921
224	0x3dbd3c3f	0.09240007
225	0xbe00caa7	-0.12577306
226	0x3da158cd	0.078782655
227	0xbdc225c4	-0.094798595
228	0x3d2dd50a	0.042439498
229	0xbd8e6957	-0.06953686
230	0x3dbf817e	0.093508705
231	0x3dac7444	0.084206134
232	0xbcbe6d80	-0.023245573
233	0xbe0116d4	-0.12606364
234	0xbd70b822	-0.058769353
235	0x3d7bc0d1	0.06146318
236	0x3de61d32	0.11236037
237	0x3cc83286	0.024438154
238	0xbd268ec3	-0.040663492
239	0x3c789feb	0.015174846
240	0xbd99473b	-0.07484289
241	0xba79dc17	-0.0009531392
242	0xbcc9c64c	-0.024630688
243	0x3d4895a9	0.048970852
244	0xbcc39245	-0.023873458
245	0x3e00530b	0.12531678
246	0x3d375265	0.044756312
247	0x3d33fd94	0.043943003
248	0x3da7ccae	0.081933364
249	0x3d2761d0	0.040864766
250	0xbe17b5ce	-0.14815447
251	0xbdde91f6	-0.108676836
252	0xbdb13693	-0.08652987
253	0xbd382c64	-0.04496421
254	0xbdc7d156	-0.097567245
255	0xbcb0fa6f	-0.021603791

arith.constant5 f4 [256, 64]
0	0x3dc12743	0.09431317
1	0x3d8747a2	0.0660546
2	0x3c179f90	0.009254351
3	0x3bad23bc	0.005283801
4	0xbd27bb73	-0.04095025
5	0x3e37bbf4	0.17942792
6	0xbdcb3b34	-0.099234015
7	0x3a75c7f4	0.00093758036
8	0x3dc94592	0.098277226
9	0x3de57ca3	0.11205413
10	0xbd254427	-0.0403482
11	0x3dd8f80b	0.105941854
12	0xbe042437	-0.1290444
13	0x3d23fb58	0.040034622
14	0x3c883ee8	0.016631559
15	0xbded48f4	-0.1158618
16	0xbdea756a	-0.11448176
17	0xbd593e1f	-0.05303776
18	0xbcaef5ed	-0.0213575
19	0xbce60c11	-0.028081926
20	0x3df1ca22	0.11806132
21	0xbde303d0	-0.110847116
22	0x3d7ef13e	0.062241785
23	0xbd964d5b	-0.07338973
24	0xbbbb7cd3	-0.0057216673
25	0xbd25f884	-0.040520206
26	0xbd5d8ae9	-0.054087553
27	0xbd9f1971	-0.077685244
28	0x3e24a56b	0.16078727
29	0x3dc1e22b	0.09466966
30	0xbdcc5d25	-0.099787034
31	0x3d27caf6	0.040965043
32	0x3c966827	0.01836021
33	0x3cbf901a	0.023384143
34	0x3c2de1ba	0.010612899
35	0xbdd0db84	-0.10198119
36	0xbda384bd	-0.07984302
37	0x3ddcbfbc	0.10778758
38	0x3cb54be5	0.022130916
39	0x3e1aed0d	0.1512949
40	0xbd4aa4a1	-0.04947341
41	0xbe1a4e5e	-0.15068957
42	0xbd855ede	-0.06512235
43	0x3df92ac0	0.12166357
44	0xbdc71185	-0.097201385
45	0x3e44bdaf	0.19212984
46	0x3d2c844a	0.04211835
47	0x3cfd80fd	0.030945295
48	0x3c6836c8	0.014173217
49	0x3d7fb147	0.062424924
50	0x3c2242bb	0.009903605
51	0x3e26c641	0.16286565
52	0x3cd1892a	0.0255781
53	0x3e080346	0.13282499
54	0x3dd5a48d	0.10431776
55	0x3dd0e58b	0.10200032
56	0xbb9d7565	-0.0048052543
57	0x3cf44242	0.02981675
58	0xbd8ae860	-0.06782603
59	0xbcb9065d	-0.022586042
60	0xbcfb34c5	-0.03066481
61	0xbd4a4b0d	-0.04938798
62	0xbdf54c4b	-0.11977442
63	0x3c98b231	0.018639656
64	0x3c4a168e	0.012334479
65	0xbe1f62cd	-0.15565033
66	0xbd59be9b	-0.05316029
67	0xbcb39720	-0.021922648
68	0xbdc5deb8	-0.09661621
69	0x3dd3b791	0.10337747
70	0xbdeb978c	-0.11503515
71	0x3cdbef25	0.026847431
72	0x3d9dc78f	0.077040784
73	0xbd03a7ba	-0.03214238
74	0x3dcfffa0	0.101561785
75	0xbd218417	-0.03943261
76	0x3da0c9cb	0.07850989
77	0xbd3cda83	-0.046106827
78	0xbc7be3c4	-0.015374128
79	0x3e007d28	0.12547743
80	0xbce4e3eb	-0.027940711
81	0x3d794610	0.060857832
82	0xbd05fb98	-0.03271064
83	0x3c87107c	0.016487353
84	0xbd985eb8	-0.07439941
85	0x3cb02070	0.021499842
86	0xbc1820cd	-0.009285164
87	0xbd77274c	-0.06034021
88	0x3d9eec10	0.07759869
89	0x3ca4cb55	0.020116488
90	0xbdaa96bf	-0.08329534
91	0x3d43627b	0.04770134
92	0xbd90c91f	-0.07069611
93	0xbdb3f9f7	-0.087879114
94	0xbd5358fb	-0.05159853
95	0x3dc0baff	0.09410667
96	0x3d960e17	0.07326906
97	0xbd0b7a85	-0.03405239
98	0x3d909136	0.07058947
99	0x3da2796b	0.07933315
100	0xbb377a25	-0.0027996388
101	0x3de8bfd5	0.11364714
102	0x3d7fd8a1	0.062462453
103	0xbddcdfd4	-0.10784879
104	0xbd5697f8	-0.052391022
105	0x3d6cb410	0.05778891
106	0xbdb325c3	-0.08747437
107	0x3dad11aa	0.08450635
108	0xbdd01877	-0.10160916
109	0x3d02c5b7	0.031926837
110	0xbccdbdfd	-0.025115008
111	0x3dd2fa8b	0.103016935
112	0xbd4a9e67	-0.04946747
113	0xbd8601c3	-0.06543305
114	0x3d4680fb	0.04846285
115	0x3e0b4fbd	0.13604636
116	0xbd3ff114	-0.04686077
117	0x3e130d0f	0.1436045
118	0x3d85cb43	0.0653291
119	0x3e08e955	0.13370259
120	0x3dd0d60f	0.101970784
121	0xbd12647c	-0.03574036
122	0xbd96e970	-0.073687434
123	0xbd0f417e	-0.034974568
124	0x3bac8a0b	0.0052654794
125	0x3dbe9749	0.09306199
126	0x3de6b8d2	0.112657204
127	0xbdaebfcf	-0.08532678
128	0xbc55f997	-0.013059995
129	0xbd76ca86	-0.060251735
130	0x3c4b3dc3	0.012404862
131	0xbdc4f1cf	-0.09616434
132	0x3d3fa479	0.046787713
133	0x3d0fc158	0.035096496
134	0xbdee3180	-0.11630535
135	0xbd842054	-0.064514786
136	0x3d982fc7	0.07430988
137	0x3d912b01	0.070882805
138	0x3dac92dc	0.08426449
139	0xbd946846	-0.07246451
140	0x3dc6f429	0.097145386
141	0xbd22f307	-0.03978255
142	0xbdc86233	-0.09784355
143	0x3dcfd918	0.10148829
144	0xbd4dda85	-0.050257225
145	0xbd9fd4f5	-0.0780429
146	0xbe1832f0	-0.14863181
147	0x3d1b1cb8	0.037869185
148	0xbdd61d1d	-0.10454772
149	0xbd884fac	-0.06655821
150	0x3d71ea4b	0.05906133
151	0xbe0be7d9	-0.13662662
152	0x3d398f9f	0.045302983
153	0xbe0a3150	-0.13495374
154	0xbd9469f3	-0.07246771
155	0xbd34fa38	-0.04418394
156	0x3d5b0c41	0.053478483
157	0x3da31acb	0.07964095
158	0xbda22510	-0.07917225
159	0xbd90924b	-0.07059153
160	0x3de4ede6	0.11178188
161	0x3d97ebfa	0.07418056
162	0x3d0e9e36	0.03481885
163	0x3d6c8854	0.0577472
164	0xbdf2c95c	-0.118548125
165	0xbdcac3c9	-0.09900624
166	0xbe077355	-0.1322759
167	0xbd89fcf7	-0.06737702
168	0x3c5d29a0	0.013498694
169	0xbce73d2d	-0.028227413
170	0x3dcb0fa4	0.099150926
171	0xbdafe318	-0.085882366
172	0xbde9acfc	-0.11409947
173	0xbe010b66	-0.12602004
174	0x3d10051e	0.03516113
175	0x3d2b3743	0.04180075
176	0xbca049c0	-0.019566417
177	0x3d23106c	0.039810583
178	0xbde7dfe5	-0.11322001
179	0x3db85d41	0.09002162
180	0xbe03eb0d	-0.12882634
181	0xbdacfefa	-0.084470704
182	0x3c429352	0.011875944
183	0xbd81b28a	-0.06332882
184	0x3c05be2d	0.008163017
185	0xbe11d7b5	-0.14242442
186	0x3d3086c7	0.043097284
187	0x3dae6465	0.085152425
188	0x3d7365ca	0.059423245
189	0xbddc0a94	-0.10744205
190	0xbdbce17f	-0.092226975
191	0xbd7d3f33	-0.06182785
192	0x3ccc4509	0.024935262
193	0x3d33e8d2	0.043923207
194	0xbc968fa6	-0.018379044
195	0xbe03bc9b	-0.12864916
196	0x3d61534b	0.055011075
197	0x3d410cbe	0.047131293
198	0xbd443cbf	-0.047909494
199	0xbd139b2d	-0.03603666
200	0x3de2235a	0.11041899
201	0xbdc9f357	-0.098608665
202	0xbe28afbf	-0.16473292
203	0xbc629032	-0.013828324
204	0x3dfbe349	0.122992106
205	0xbd02c21d	-0.031923402
206	0x3db67d38	0.08910602
207	0x3dd648f0	0.104631305
208	0x3c4ca124	0.012489591
209	0xbc567fa3	-0.013091954
210	0x3b130be2	0.0022437503
211	0xbdb960d9	-0.09051675
212	0xbcf628d2	-0.030048762
213	0xbe09f3c1	-0.13471891
214	0xbe0015a1	-0.12508251
215	0xbd750544	-0.059819475
216	0xbdf578a8	-0.11985904
217	0xbd957bd6	-0.072990105
218	0x3bd79472	0.0065789754
219	0xbd2663aa	-0.04062239
220	0xbddb74cb	-0.10715636
221	0xbe1c6c25	-0.15275629
222	0xbda23d72	-0.07921876
223	0xbe2ac65c	-0.1667723
224	0xbb0e7e8e	-0.0021742913
225	0xbd81e43b	-0.0634236
226	0x3d9c9add	0.07646725
227	0x3d061706	0.0327368
228	0xbd614785	-0.054999847
229	0xbe283df6	-0.16429886
230	0x3d229d9c	0.03970109
231	0xbceba260	-0.02876395
232	0x3df7d226	0.121006295
233	0x3da7d089	0.08194072
234	0x3cd5237e	0.0260179
235	0x3da8b9fa	0.08238597
236	0x3cca6209	0.02470495
237	0x3d5cce41	0.053907637
238	0xbde94580	-0.11390209
239	0xb68ac0f6	-4.135184e-06
240	0xbd5395e5	-0.051656622
241	0x3db78af5	0.08962051
242	0xbc53c274	-0.012924779
243	0xbb73fc4e	-0.0037229243
244	0x3d3bc358	0.04584059
245	0x3daac90a	0.083391264
246	0x3dce8879	0.10084624
247	0x3c776ee9	0.015102127
248	0x3d977d95	0.07397
249	0xbdfcf57c	-0.1235151
250	0x3dcbcd2d	0.099512435
251	0x3d6e1cca	0.058132924
252	0x3d56226d	0.052278925
253	0x3c8d564c	0.017253064
254	0x3df7541c	0.120765895
255	0x3e0aa4be	0.13539407

arith.constant6 f4 [256]
0	0x3b540633	0.0032352328
1	0xbcaa9d91	-0.020827087
2	0xbc76db07	-0.015066869
3	0xbc90c8ee	-0.017673936
4	0x3a28438f	0.00064187584
5	0x38fac7a0	0.00011958112
6	0xbb661928	-0.003511021
7	0x3c896ed9	0.01677649
8	0x3c00f952	0.007871943
9	0xbc4558b9	-0.012045079
10	0x3c4bdc18	0.012442611
11	0xbb2204c8	-0.0024722088
12	0x38a2f400	7.7702105e-05
13	0xbca250b3	-0.019813871
14	0x3bd75400	0.006571293
15	0x3bad56b9	0.005289879
16	0xbb3f0049	-0.0029144457
17	0x3aa82b7b	0.0012830341
18	0xbb339edd	-0.0027407922
19	0x00000000	0.0
20	0x3b9faf60	0.0048732013
21	0xbcaac605	-0.020846376
22	0xbbedd620	-0.0072581917
23	0x3c8f9c75	0.01753066
24	0x3c3827e3	0.0112399785
25	0xbc07ea1f	-0.008295565
26	0x00000000	0.0
27	0xbc8786a7	-0.0165437
28	0x390cf03e	0.00013440938
29	0xbbfecf97	-0.0077762115
30	0x3c7c5284	0.015400533
31	0xbc5aacbd	-0.013346848
32	0xbcc55a3b	-0.024090877
33	0x00000000	0.0
34	0x3bc72372	0.0060772235
35	0xbba8ee2b	-0.005155345
36	0xbb356938	-0.0027681123
37	0x3c6f8cae	0.014620943
38	0x3c5b54b1	0.013386891
39	0xbc1bc48e	-0.0095073115
40	0xbbd7b4eb	-0.0065828464
41	0xbc1a64d2	-0.0094234515
42	0xbc6b34ff	-0.014355897
43	0xbc42814f	-0.01187165
44	0x3c07aa40	0.008280337
45	0x3b78b357	0.0037948692
46	0xbc335807	-0.01094628
47	0xbc6ee893	-0.014581817
48	0xbb586d88	-0.003302427
49	0x3cb4d0b6	0.022072177
50	0xbc2f2249	-0.010689327
51	0x3b88e1d7	0.004177313
52	0x3a6c91ee	0.0009024431
53	0xbc8a0ae4	-0.016850896
54	0xbc191cd8	-0.009345256
55	0x3ae000fd	0.0017090138
56	0x3c90abde	0.017660078
57	0xbc865326	-0.01639707
58	0x3c648078	0.013946645
59	0xbcb5b159	-0.022179293
60	0x3b3328e7	0.0027337612
61	0x3c8378ee	0.016048875
62	0xbc83b2a6	-0.016076397
63	0x3cacb537	0.021082504
64	0xbc44d547	-0.01201374
65	0xbb79a19f	-0.0038090718
66	0xba2b39c6	-0.0006531741
67	0x3aede650	0.0018150304
68	0xbb9d4d61	-0.004800484
69	0x3b8e879e	0.004349663
70	0x3c06ec68	0.008235075
71	0x3a0e89c6	0.00054374
72	0xbc2423d8	-0.010018311
73	0xbc58d0c4	-0.013233367
74	0xbb67be87	-0.0035361366
75	0x3c347e6b	0.0110164685
76	0x3c5219b4	0.012823511
77	0x3c6fd030	0.014637038
78	0xbc38e09a	-0.011284018
79	0x3bd17e6b	0.006393244
80	0xbc9ef5ec	-0.019404374
81	0xbc062191	-0.008186714
82	0xbc2e7d75	-0.0106500285
83	0xbc727ec4	-0.014800731
84	0x3cb90aa6	0.022588085
85	0x3aed4924	0.0018103463
86	0x3c11276e	0.008859498
87	0x3be50069	0.0069885743
88	0x3b6e1cb6	0.003633303
89	0x3c1ab932	0.009443568
90	0xbb6913ff	-0.0035564897
91	0xbb8204af	-0.0039678435
92	0x3cb62705	0.022235403
93	0xbb9de2e6	-0.004818308
94	0x3be848df	0.007088765
95	0x00000000	0.0
96	0xbc93c6ba	-0.018039096
97	0xbd1a535b	-0.03767715
98	0x3b552c8b	0.003252777
99	0xba84b04c	-0.0010123341
100	0xbc1ed5f5	-0.009694566
101	0x3c23915f	0.00998339
102	0x3c9e48ae	0.019321766
103	0xbc4d79a7	-0.012541211
104	0xbc5c31c2	-0.013439598
105	0xbb2d3a6d	-0.002643253
106	0x3bf865b1	0.007580482
107	0x00000000	0.0
108	0xbb11efe0	-0.002226822
109	0xbbd53435	-0.0065064677
110	0xbc8626d6	-0.01637594
111	0xbc4b5ab2	-0.01241176
112	0xba876330	-0.0010329243
113	0x3bae0fd8	0.0053119473
114	0x00000000	0.0
115	0x39d63724	0.00040858344
116	0xbc1d3a6c	-0.009596448
117	0xbc3eed79	-0.011653298
118	0xbc3d811f	-0.011566429
119	0xbbe828e6	-0.0070849536
120	0xbc52cf43	-0.012866798
121	0x00000000	0.0
122	0xbb8c8c9a	-0.004289222
123	0xbbe21e71	-0.0069006016
124	0x3bee7864	0.0072775353
125	0x3c598773	0.0132769225
126	0x3caec497	0.021333976
127	0xbc5be3b6	-0.01342099
128	0xbc4ba805	-0.012430196
129	0xbc8e2ca7	-0.017355276
130	0x39639adc	0.00021706097
131	0x3bdfd3bc	0.0068306606
132	0x39e4ca82	0.0004363843
133	0xbbfc5649	-0.0077007157
134	0xbc7fb78d	-0.015607727
135	0x3c977b4d	0.018491412
136	0x3bc02f3e	0.0058650067
137	0xbbffbe2b	-0.007804652
138	0xbc0af350	-0.008480862
139	0x3ca6c954	0.020359673
140	0xbb712593	-0.0036796078
141	0xbbe3c53c	-0.0069510024
142	0x3bbb1823	0.0057096644
143	0x3c47a610	0.0121855885
144	0x3bd26ace	0.0064214235
145	0x3c3a9985	0.011389141
146	0xbb3ba11e	-0.002862997
147	0xbc938105	-0.018005857
148	0xbb56bb5f	-0.003276549
149	0xbc853815	-0.016262094
150	0xbb3ece7d	-0.0029114776
151	0x3d300dfa	0.04298208
152	0x3b2ccb25	0.00263662
153	0x3c26a382	0.010170819
154	0xbc5438d9	-0.012953007
155	0x3c588dc0	0.01321739
156	0xbc976485	-0.018480549
157	0x3b2410f1	0.0025034512
158	0x3cc1a8aa	0.023639996
159	0x3c87ef0c	0.016593479
160	0x3c0bd257	0.008534036
161	0xbb2ac3d9	-0.0026056676
162	0xbc816d3b	-0.015799155
163	0xbc045aec	-0.008078318
164	0xbbaf227e	-0.005344688
165	0x3bfd6ffe	0.007734298
166	0xbc256399	-0.010094547
167	0x3b0fa88c	0.002192053
168	0xbc018a11	-0.007906453
169	0xbc154db7	-0.009112767
170	0xbc50fb3f	-0.012755214
171	0xbca646c9	-0.020297425
172	0x3c1cca0a	0.009569654
173	0xbbc18a7b	-0.0059064007
174	0xbbcbb430	-0.0062165484
175	0x3ca18432	0.019716356
176	0x3cdaf9d2	0.026730452
177	0xbbc4b833	-0.0060034036
178	0xbbcfceca	-0.00634179
179	0xbbef93fc	-0.0073113423
180	0x3b0621aa	0.0020466843
181	0x3bbc8ea7	0.00575431
182	0x3c097ce3	0.008391592
183	0xbc48717c	-0.012234088
184	0xbc6363dd	-0.01387879
185	0xb64bfb2a	-3.0395554e-06
186	0x3ba17f39	0.004928496
187	0xbb834e73	-0.0040071546
188	0x3c1ecd72	0.009692537
189	0x3c67620b	0.014122496
190	0xbb8e2329	-0.0043376875
191	0xbc696571	-0.014245377
192	0xbb7bd8e0	-0.0038428828
193	0x3c032e9f	0.008006721
194	0xbca90e34	-0.020636655
195	0xb9a77fb8	-0.0003194788
196	0xbbbf2efe	-0.0058344593
197	0x3bba1c81	0.0056796675
198	0xbc0f8799	-0.008760356
199	0x3c06c936	0.008226683
200	0xbc1395c8	-0.009007879
201	0xbcf952fb	-0.030435076
202	0xbc25011a	-0.010071063
203	0x3c00007a	0.007812614
204	0x3c95c046	0.01828016
205	0x3b02b95e	0.0019946913
206	0xba95c233	-0.0011425674
207	0xbb59a26e	-0.0033208388
208	0xbc0634c3	-0.00819129
209	0xbcb4198e	-0.021984842
210	0xbc35e885	-0.0111028
211	0x3b6c3c77	0.0036046782
212	0xbbb558bd	-0.00553426
213	0xbc9fa18b	-0.01948621
214	0xbc6e5ca9	-0.014548459
215	0xbbe4a29c	-0.0069773924
216	0xbb54e04e	-0.0032482329
217	0xbc1dcd82	-0.009631516
218	0x3c1fa96a	0.009744981
219	0x3cc0b224	0.023522444
220	0xbc895697	-0.016764922
221	0xbc330f3a	-0.010928923
222	0x3c985055	0.018592993
223	0xbbbeb80d	-0.0058202804
224	0xbbf7821a	-0.007553351
225	0xba2f4790	-0.0006686384
226	0xbb9cdf56	-0.004787366
227	0x3ca30d2f	0.019903747
228	0x3bd497ab	0.006487807
229	0xbc75f016	-0.015010854
230	0xbc0a40d8	-0.0084383115
231	0xbb4b3148	-0.0031004716
232	0x00000000	0.0
233	0xbba96ff4	-0.0051708166
234	0xbc473894	-0.012159485
235	0xbba7d629	-0.0051219654
236	0xb9e3eb18	-0.00043471972
237	0x3c338341	0.010956586
238	0x3c248f63	0.010043952
239	0xbad573f1	-0.0016285164
240	0xbb48c2f8	-0.0030633789
241	0x3c6c0d09	0.014407405
242	0xbbfc9043	-0.007707627
243	0x3986e6fb	0.00025730566
244	0xbcc80fee	-0.024421658
245	0xbc23aa19	-0.009989285
246	0xbb09d514	-0.0021031545
247	0xbac52521	-0.0015040973
248	0xbc87bf3b	-0.016570678
249	0x00000000	0.0
250	0x3b771595	0.0037702073
251	0x3c0c776f	0.008573397
252	0x3c78ccab	0.015185515
253	0xbc14f54b	-0.0090916855
254	0xba54cf07	-0.00081180077
255	0xbc56be6d	-0.0131069245

arith.constant7 f4 [4]
0	0xbc71d9f1	-0.014761434
1	0x3c82e279	0.015977131
2	0xb99ac230	-0.0002951785
3	0x3b94dabe	0.0045426777

functional_74_1/batch_normalization_1_2/batchnorm/mul f4 [64]
0	0x3f8e6f51	1.1127721
1	0x3fa5a0dc	1.2939715
2	0x3f8b34e9	1.0875522
3	0x3f8995ac	1.0748801
4	0x3fdf4a3f	1.7444533
5	0x3fb45956	1.4089763
6	0x3f9fee82	1.2494662
7	0x400db395	2.2140858
8	0x3fa87acf	1.3162478
9	0x3f8b0d82	1.0863497
10	0x3faaf193	1.3354973
11	0x3fc27230	1.5191097
12	0x3f9f4251	1.2442113
13	0x408cbd35	4.3980966
14	0x40219b36	2.5250983
15	0x3f8ad698	1.0846739
16	0x3fce53de	1.6119344
17	0x4025857c	2.5862722
18	0x3fe112ca	1.7583859
19	0x3fba3ee0	1.4550438
20	0x40376956	2.8658042
21	0x4006f63d	2.1087792
22	0x3fc00c08	1.5003672
23	0x3fd06b27	1.62827
24	0x4015d10f	2.340885
25	0x400149ee	2.0201373
26	0x3fb4553c	1.4088511
27	0x3ff78cb2	1.9339812
28	0x4004aa7b	2.0729053
29	0x3f599179	0.849876
30	0x401619b5	2.345319
31	0x3fe5d6ad	1.7956139
32	0x3f950ad4	1.164393
33	0x3fc58666	1.543164
34	0x3fd82a28	1.6887865
35	0x4004a71e	2.0727
36	0x3f9db95c	1.2322192
37	0x3f9f71aa	1.2456563
38	0x401666f9	2.350035
39	0x3f708c6a	0.93964255
40	0x403d63ee	2.9592242
41	0x3fc18d82	1.512131
42	0x3fd55a75	1.666823
43	0x3fc06c0a	1.5032971
44	0x402bb8d5	2.6831563
45	0x402bb91e	2.6831737
46	0x3fd68cfb	1.6761774
47	0x3fb532ea	1.4156163
48	0x3feafb16	1.8357875
49	0x3f66f962	0.9022428
50	0x4001385f	2.0190656
51	0x3ff60ee3	1.9223293
52	0x4001746b	2.0227306
53	0x3f8fa4d0	1.1222172
54	0x3f8e0f33	1.1098388
55	0x3f8df599	1.1090575
56	0x40119c50	2.2751656
57	0x3fd82b03	1.6888126
58	0x3fb6cd62	1.4281428
59	0x3ffc1b2e	1.9695795
60	0x3fabb680	1.341507
61	0x3fe2cff9	1.7719718
62	0x3fce6af3	1.6126388
63	0x40031036	2.0478644

functional_74_1/batch_normalization_1_2/batchnorm/sub f4 [64]
0	0xbe9a339a	-0.30117494
1	0xbf3c097a	-0.7345196
2	0xbef536a8	-0.47893262
3	0xbebc3721	-0.3676081
4	0xbefe2824	-0.4964
5	0xbf1fcbb3	-0.62420195
6	0xbf3f174a	-0.7464491
7	0xbf483785	-0.78209716
8	0xbf3e9703	-0.74449176
9	0xbef1c9ca	-0.47224265
10	0xbed7d3a0	-0.42153645
11	0xbf4d7950	-0.80263233
12	0xbeae447f	-0.34036633
13	0xbef663bf	-0.48122975
14	0xbf10f9bd	-0.5663107
15	0xbec66f2b	-0.3875669
16	0xbee214d5	-0.4415652
17	0xbee80bf4	-0.4532162
18	0xbf3bc73a	-0.7335087
19	0xbf5f0aac	-0.8712566
20	0xbef92bfc	-0.4866637
21	0xbf3ede77	-0.74558204
22	0xbf23c17e	-0.6396712
23	0xbf49eb83	-0.7887499
24	0xbf16b825	-0.5887473
25	0xbed81c00	-0.42208862
26	0xbf1d92f2	-0.61552346
27	0xbf56507b	-0.83716553
28	0xbf3033f2	-0.6882926
29	0xbefe6797	-0.49688408
30	0xbf0a4186	-0.5400623
31	0xbec31d67	-0.3810837
32	0xbee892ac	-0.45424402
33	0xbf6048c9	-0.8761106
34	0xbed6830a	-0.4189685
35	0xbf360652	-0.71103394
36	0xbf256e89	-0.6462179
37	0xbe9f64c8	-0.31131577
38	0xbf022981	-0.5084458
39	0xbed1c793	-0.40972576
40	0xbed84604	-0.42240918
41	0xbf249a3e	-0.64297855
42	0xbf40199d	-0.7503908
43	0xbf3d0250	-0.73831654
44	0xbf4c8f07	-0.7990574
45	0xbf4023cf	-0.7505464
46	0xbf10e364	-0.5659697
47	0xbf2c213d	-0.6723822
48	0xbf42699c	-0.759424
49	0xbed15982	-0.40888602
50	0xbef6b89f	-0.4818773
51	0xbf24cfc0	-0.643795
52	0xbf42d9b8	-0.7611346
53	0xbf3c97d4	-0.7366917
54	0xbec86b68	-0.39144444
55	0xbf1a8deb	-0.603728
56	0xbf0974e2	-0.53693974
57	0xbf33ed4a	-0.7028395
58	0xbf46020f	-0.7734689
59	0xbef056f3	-0.46941337
60	0xbf673fd8	-0.9033179
61	0xbf038b1f	-0.51384157
62	0xbe8dbf70	-0.27685118
63	0xbecc1507	-0.39859793

functional_74_1/batch_normalization_1/batchnorm/mul f4 [64]
0	0x41e6616a	28.797565
1	0x41dd4078	27.656479
2	0x41e18f4c	28.19497
3	0x407426e0	3.8148727
4	0x41dd25b7	27.643415
5	0x41afe815	21.988321
6	0x41dd3f78	27.65599
7	0x41dc8ff3	27.570288
8	0x41db478d	27.409937
9	0x41dd55dd	27.666925
10	0x41df6883	27.926031
11	0x3fb482f8	1.4102468
12	0x404a8f9f	3.165016
13	0x40d0a92a	6.52065
14	0x41dc81c7	27.563368
15	0x41dd03fb	27.626944
16	0x41dcc4c6	27.59608
17	0x40ebe4fa	7.3717012
18	0x41deaafc	27.833488
19	0x3fc100e8	1.5078402
20	0x3fd2d210	1.6470356
21	0x41dcd7fe	27.605465
22	0x41dcca30	27.598724
23	0x41eb93b9	29.44713
24	0x41e9b784	29.214607
25	0x40c18a83	6.048158
26	0x41dccbaa	27.599445
27	0x3fd8d78b	1.6940778
28	0x415241fe	13.141111
29	0x400d1a81	2.2047427
30	0x41df57f0	27.917938
31	0x41dbfc1b	27.498098
32	0x41ce4fe2	25.789005
33	0x41e52d57	28.647139
34	0x41de9a06	27.825207
35	0x41dcc8c3	27.598028
36	0x41dc6b9a	27.55254
37	0x40ef68cf	7.481544
38	0x4013bb74	2.3083162
39	0x404974ff	3.1477659
40	0x41dd02fc	27.626457
41	0x41e070e2	28.055119
42	0x41d9bb04	27.216316
43	0x41dd3b9d	27.654108
44	0x41dce871	27.613497
45	0x41e02630	28.018646
46	0x41e6addc	28.834892
47	0x41d5170f	26.63626
48	0x41e43a14	28.528358
49	0x41dd6712	27.675327
50	0x41dd202b	27.640707
51	0x41e47ceb	28.560995
52	0x41c5028f	24.62625
53	0x3fd69e90	1.676714
54	0x4041c0c1	3.0273898
55	0x4130cb87	11.049689
56	0x401c99b0	2.4468803
57	0x400620a5	2.0957425
58	0x41aa6651	21.29996
59	0x41e541e8	28.65718
60	0x41de7247	27.8058
61	0x416a55da	14.64596
62	0x41dff4eb	27.994589
63	0x41187cd6	9.530478

functional_74_1/batch_normalization_1/batchnorm/sub f4 [64]
0	0xbcbe64c2	-0.023241404
1	0x3d49b72b	0.04924695
2	0xbd190580	-0.03735876
3	0xbf8f9976	-1.1218708
4	0xbc83ba77	-0.016080124
5	0xbd947731	-0.072492965
6	0x3b3c9515	0.0028775383
7	0x3c3e1637	0.011601976
8	0x3cf205d0	0.029543787
9	0xbc983f01	-0.01858473
10	0xbc662d08	-0.014048822
11	0xbfdb71da	-1.714412
12	0xbfa3bbed	-1.2791725
13	0xc008dba8	-2.1384068
14	0xbbe082b0	-0.0068515167
15	0x3b9248ff	0.004464268
16	0xbd397a94	-0.045282915
17	0xbfae9871	-1.3640271
18	0xbceef502	-0.029169563
19	0xbfd4511b	-1.6587251
20	0xc013bcc6	-2.3083968
21	0xbcdad7d4	-0.026714243
22	0xbc8c3a2f	-0.017117588
23	0xbc96c1e4	-0.018403001
24	0xbd0fb554	-0.035085037
25	0xbfdab76b	-1.7087225
26	0xbcbb81e1	-0.02288908
27	0xc0090c18	-2.1413631
28	0xbdb34c70	-0.08754814
29	0xc0288b20	-2.6334915
30	0x3d08a1dc	0.033357486
31	0xbd666378	-0.056247205
32	0xbc9cee0b	-0.019156476
33	0xbbc615bc	-0.0060450714
34	0xbc49e5b5	-0.012322833
35	0xbcff21f9	-0.03114413
36	0x3b8557a5	0.004069286
37	0xbfaac1f0	-1.3340435
38	0xbfc609fb	-1.5471796
39	0xbf9db0f9	-1.2319633
40	0xbb8e6b6a	-0.004346301
41	0xbc318ae7	-0.01083634
42	0xbcd289aa	-0.025700409
43	0xbc694122	-0.01423672
44	0x3c373d58	0.011184059
45	0xbd6fb3aa	-0.05852095
46	0x3d122f64	0.035689726
47	0xbc6a0156	-0.014282545
48	0xbcd970f8	-0.026543126
49	0xbca757ca	-0.020427603
50	0xbd01516c	-0.03157179
51	0xbd4928e0	-0.049111247
52	0xbdf039c0	-0.11729765
53	0xbfeb54bf	-1.8385237
54	0xc0174a59	-2.3639128
55	0xbf5e8f91	-0.86937815
56	0xc00cfac4	-2.2028055
57	0xbfffa2d4	-1.9971566
58	0xbd504748	-0.05084923
59	0x3cdcfd7c	0.02697634
60	0xbc89966e	-0.016795363
61	0xbf1444e9	-0.5791765
62	0xbc531300	-0.012882948
63	0xbebadd15	-0.36496797
